checkpoint_actor.pth (torch_old, 173995 bytes, 10 tensors)

fc1.weight f4 [256, 33]
0	0xbd6f5a89	-0.05843595
1	0x3d9af0da	0.0756547
2	0x3e79458b	0.24342935
3	0xbe282143	-0.16418938
4	0x3ea7a816	0.32745427
5	0x3e3dd15c	0.18536896
6	0xbf02d731	-0.51109606
7	0x3e524abf	0.20536326
8	0x3d979081	0.07400609
9	0x3df98e05	0.12185291
10	0x3e135194	0.14386588
11	0xbcc70312	-0.024293456
12	0x3c8b6b90	0.017019063
13	0xbd1e6c8e	-0.038677745
14	0x3d67ef25	0.05662455
15	0xbd973398	-0.073828876
16	0x3f7249f6	0.94644105
17	0x3ed1feef	0.4101481
18	0x3d18bf31	0.03729171
19	0xbeb30aa1	-0.34969047
20	0xbda76342	-0.08173229
21	0xbe1186d2	-0.14211586
22	0xbc12c5f9	-0.008958333
23	0xbc527fc6	-0.012847846
24	0xbd0664fc	-0.03281115
25	0xbc05050f	-0.008118882
26	0x3d10ab63	0.035319697
27	0x3df5c457	0.120003395
28	0xbdd1faa5	-0.10252885
29	0x3d7dfb42	0.062007196
30	0xbd963c20	-0.07335687
31	0xbd1c68b2	-0.038185783
32	0xbe8e584a	-0.27801734
33	0xbe40e46d	-0.18837138
34	0x3d83d793	0.06437602
35	0xbddc6e4a	-0.107632235
36	0x3dd1b35b	0.102392875
37	0xbe96a384	-0.29421628
38	0x3ef222f8	0.47292304
39	0xbe2c7614	-0.16841918
40	0x3b555820	0.0032553747
41	0x3e9f7c77	0.31149647
42	0x3d76d504	0.06026174
43	0xbe0c1c57	-0.13682686
44	0x3d65be3d	0.05608963
45	0xbca01ab6	-0.019543987
46	0x3e39ba89	0.18137564
47	0x3e5f7c61	0.2182479
48	0x3dfbe1be	0.12298916
49	0x3e765d13	0.24058942
50	0xbcc622c1	-0.024186494
51	0x3f0c6178	0.54836226
52	0x3df92238	0.1216473
53	0x3d900594	0.07032314
54	0x3df80967	0.12111168
55	0x3cf6fd92	0.030150209
56	0x3cf007c9	0.029300587
57	0x3de7ab6a	0.113119915
58	0x3c99e712	0.01878694
59	0xbe5feeb8	-0.21868408
60	0xbdaa09f8	-0.08302683
61	0xbc3c0e9f	-0.011478095
62	0xbd471092	-0.048599787
63	0x3df5d04f	0.12002622
64	0x3d2ebed2	0.04266245
65	0x3e457f6d	0.1928689
66	0x3ceaa17b	0.028641453
67	0x3dac8057	0.084229164
68	0xbe15ce6c	-0.14629525
69	0x3e0b743f	0.13618563
70	0xbe057a67	-0.13034974
71	0x3e405914	0.1878398
72	0xbf0fc2b3	-0.5615646
73	0x3e717db4	0.23583108
74	0x3ea0c49e	0.31400007
75	0x3c3fcc52	0.011706429
76	0x3d30a174	0.043122724
77	0x3d00cb58	0.031443924
78	0xbe0a7717	-0.13521992
79	0xba3c2cfc	-0.0007178334
80	0x3b7554c2	0.0037434553
81	0xbe376582	-0.17909816
82	0x3f0fb9e4	0.5614302
83	0xbee361f2	-0.44410664
84	0x3f0e8700	0.55674744
85	0x3e160a56	0.1465238
86	0xbd3df8a6	-0.046379708
87	0x3d982252	0.07428421
88	0x3c9c436c	0.019075118
89	0x3e026187	0.12732516
90	0x3da3cca8	0.079980195
91	0x3d501dfa	0.050809838
92	0x3c7f2829	0.01557354
93	0x3ca6a6d5	0.020343224
94	0x3e3134e2	0.1730533
95	0xbbdf2350	-0.0068096295
96	0x3d7512b4	0.05983229
97	0xbd1405a6	-0.0361382
98	0x3e49070b	0.19631593
99	0xbe7612dd	-0.24030633
100	0x3d96bf7e	0.07360743
101	0xbdb238f0	-0.08702266
102	0xbda3047f	-0.07959842
103	0xbeff0b56	-0.49813336
104	0xbf1ece01	-0.62033087
105	0x3f09cefd	0.53831464
106	0x3c2b0723	0.010438713
107	0xbdb94219	-0.0904581
108	0xbdacfc72	-0.084465876
109	0xbd5fde6d	-0.05465548
110	0xbd35935d	-0.04432999
111	0xbcf1d04a	-0.029518265
112	0x3e2f9231	0.17145611
113	0xbdc39c0e	-0.095512494
114	0xbca3f89f	-0.020016013
115	0x3f087f4d	0.53319246
116	0xbd2d81c0	-0.042360067
117	0x3e16a8aa	0.14712778
118	0x3e74938a	0.23884407
119	0x3d8cc486	0.06873421
120	0x3d4d69a6	0.050149582
121	0x3bcf2312	0.0063213194
122	0x3d956fdf	0.07296728
123	0xbdb10ffb	-0.08645626
124	0xbdd9d56c	-0.1063641
125	0x3c10715c	0.0088160895
126	0x3e01a9a9	0.12662376
127	0xbe01a7b8	-0.12661636
128	0x3d7a3f36	0.06109544
129	0xbdea74e6	-0.11448078
130	0xbd4ee952	-0.05051548
131	0xbf200084	-0.62500787
132	0x3ea75755	0.32683817
133	0xbc1f39c7	-0.009718365
134	0xbdf23ebe	-0.118283734
135	0xbe061fa3	-0.13098006
136	0xbec2bfdd	-0.38037005
137	0x3f092d5b	0.5358483
138	0x3dda2306	0.106512114
139	0xb9ecd4ac	-0.0004517188
140	0xbe0640a8	-0.13110602
141	0xbdea02ab	-0.1142629
142	0x3e15533b	0.14582531
143	0xbd3093b6	-0.043109618
144	0x3dd186a4	0.10230759
145	0xbcfc9595	-0.030833045
146	0xbe2022f5	-0.15638335
147	0x3dbc7ca6	0.09203462
148	0xbd80f95d	-0.06297562
149	0x3ecde9ac	0.4021734
150	0x3e998472	0.2998386
151	0xbf19bab8	-0.60050535
152	0x3ccd9f7c	0.025100462
153	0xbdd5806b	-0.104248844
154	0xbd292641	-0.041296247
155	0x3ce95d24	0.028486796
156	0x385e79d3	5.3042382e-05
157	0x3deb5249	0.11490304
158	0xbd9f2fbb	-0.07772776
159	0x3e463e6d	0.19359751
160	0xbe122f5c	-0.14275879
161	0x3b829260	0.0039847344
162	0xbe449195	-0.1919616
163	0xbd30759a	-0.043080904
164	0x3e21f54d	0.15816231
165	0x3dbbfed5	0.09179465
166	0x3c073cab	0.00825421
167	0x3dc6717d	0.09689615
168	0xbed24cdc	-0.41074264
169	0x3ccf177d	0.025279755
170	0x3f1067ee	0.56408584
171	0xbef01321	-0.46889594
172	0xbe52518f	-0.20538925
173	0xbe1820ef	-0.14856313
174	0x3c66cee0	0.014087409
175	0x3a00a4f2	0.0004907391
176	0xbca5b1f4	-0.020226456
177	0xbe0b14ad	-0.13582106
178	0xbda6dd93	-0.08147731
179	0xbbf85127	-0.0075780335
180	0xbe288bf5	-0.1645964
181	0x3e98623f	0.29762456
182	0xbe21f2e7	-0.15815316
183	0xbededf08	-0.43529534
184	0x3dd315ea	0.10306914
185	0x3cdcb949	0.02694382
186	0x3d9e1f1c	0.077207774
187	0x3c85ce70	0.016333789
188	0x3d17fd59	0.037106846
189	0x3defa061	0.11700512
190	0xbe0a1d3c	-0.13487715
191	0x3ddf7a6f	0.10912024
192	0x3ea404de	0.32034963
193	0x3e02c283	0.12769513
194	0xbd3ee57e	-0.04660558
195	0xbe9b8685	-0.30376068
196	0xbd56ae94	-0.052412584
197	0x3e968841	0.29400828
198	0x3de23c8a	0.11046703
199	0x3d5f778c	0.05455737
200	0x3d8efbf3	0.06981649
201	0x3e9a9a85	0.30196014
202	0x3e2f75e8	0.17134821
203	0x3d127ec5	0.035765428
204	0x3ea7544a	0.32681495
205	0xbc80ab08	-0.015706554
206	0xbde11955	-0.1099116
207	0xbe3b7c60	-0.18309164
208	0x3d14e882	0.03635455
209	0x3c3fb986	0.011701947
210	0x3ce29cc4	0.027662642
211	0xbe8e944a	-0.2784751
212	0x3ddf014f	0.108889215
213	0x3d5d248d	0.053989936
214	0x3e8ecf0a	0.27892333
215	0xbe844558	-0.25834155
216	0x3cc2e604	0.02379132
217	0xbf1fc2c5	-0.6240657
218	0x3c1ac21d	0.009445694
219	0x3d366df4	0.044538453
220	0xbd29e715	-0.041480143
221	0xbd5f90d9	-0.054581497
222	0x3d71b774	0.059012845
223	0x3d17463a	0.036932208
224	0x3e4edc9b	0.20201342
225	0x3d9e25af	0.07722031
226	0xbd948355	-0.07251612
227	0xbc403d90	-0.011733428
228	0x39a78cbb	0.00031957575
229	0x3afd7440	0.0019337013
230	0xbe997c44	-0.2997762
231	0x3c750d8e	0.014956845
232	0x3d9e34ec	0.07724938
233	0x3c5a813b	0.013336475
234	0xbee406a0	-0.44536304
235	0x3ea37b47	0.3192999
236	0x3f6fd709	0.9368749
237	0x3e66b90a	0.22531524
238	0x3d30c31a	0.043154813
239	0xbd41dc45	-0.047329206
240	0xbd2cbfb8	-0.042175025
241	0x3a4eb9b3	0.00078859477
242	0x3b74f8c1	0.0037379714
243	0xbdf53219	-0.11972446
244	0xbe479ae3	-0.19492678
245	0x3d0d7939	0.034539435
246	0xbd70bc4f	-0.058773335
247	0xbea310c8	-0.3184874
248	0x3e05d2eb	0.1306874
249	0xbd014c67	-0.031567004
250	0xbea1d411	-0.31607106
251	0xbc06860d	-0.008210671
252	0xbdf60cea	-0.12014182
253	0xbc76c032	-0.015060471
254	0xbd645581	-0.055745605
255	0xbd326340	-0.043551683

fc1.bias f4 [256]
0	0x3b3d40e7	0.0028877796
1	0xbcf29ae5	-0.029614875
2	0xbc3fb800	-0.011701584
3	0xbdad89c9	-0.08473546
4	0xbdd4f4de	-0.10398267
5	0xbe2d6e85	-0.16936691
6	0xbe1ba913	-0.15201215
7	0xbd2d220a	-0.04226879
8	0xbda544b0	-0.08069742
9	0xbe89a214	-0.26881468
10	0xbe949ced	-0.29025975
11	0xbe65338e	-0.22382948
12	0xbe6e9804	-0.23300177
13	0xbde70036	-0.11279337
14	0xbec6818e	-0.38770717
15	0xbe6b317a	-0.22968093
16	0xbdb86ea5	-0.09005479
17	0xbe111b16	-0.14170489
18	0xbe70493a	-0.23465434
19	0xbe1fb32c	-0.15595692
20	0xbdf21661	-0.11820675
21	0xbe2e2025	-0.1700445
22	0xbe93f594	-0.288983
23	0xbcd7212c	-0.026260935
24	0xbe8a90f8	-0.27063727
25	0xbdae415d	-0.08508561
26	0x3dfe8bb2	0.124289885
27	0xbe0339f4	-0.12815076
28	0xbe518fa4	-0.20464951
29	0xbdc989ca	-0.09840734
30	0xbe942c7c	-0.2894019
31	0x3bb84f45	0.005624684
32	0xbdde439e	-0.10852741
33	0xbee2149f	-0.44156358
34	0xbd8abbc6	-0.06774096
35	0xbe805c7f	-0.2507057
36	0xbd917837	-0.07103007
37	0xbe7ee814	-0.24893218
38	0xbe5297f0	-0.20565772
39	0xbe7b17be	-0.24520776
40	0xbef5e4a8	-0.48026013
41	0x3b8daa00	0.004323244
42	0xbe619608	-0.22029889
43	0xbed1fa61	-0.41011336
44	0xbdbb8b44	-0.09157422
45	0xbe3d3a08	-0.18479168
46	0xbeca5ff3	-0.39526328
47	0xbe45f395	-0.193312
48	0xbe987271	-0.29774812
49	0xbe17ec0d	-0.1483614
50	0xbe82e791	-0.25567296
51	0xbdf948a5	-0.12172059
52	0x3e454201	0.1926346
53	0xbe612a95	-0.219889
54	0xbe3dc6cb	-0.18532865
55	0xbd9570a2	-0.07296874
56	0xbe5fdb32	-0.2186096
57	0x3d1a461a	0.03766451
58	0xbe487769	-0.19576801
59	0xbe805f12	-0.25072533
60	0xbec98f36	-0.39367074
61	0xbe1ae55f	-0.1512656
62	0xbe24a5f4	-0.16078931
63	0xbecbb2a4	-0.3978473
64	0xbe32d9ab	-0.17465846
65	0x3d520570	0.051274717
66	0xbe3062a9	-0.17225136
67	0xbecef6f2	-0.4042278
68	0x3cf0b8e4	0.029385038
69	0xbe772f45	-0.24139126
70	0xbe43817b	-0.19092362
71	0xbea9c27d	-0.33156195
72	0xbe51faed	-0.20505877
73	0xbde58cdc	-0.112085074
74	0xbd30d120	-0.043168187
75	0xbde09d31	-0.10967482
76	0xbe63ced6	-0.2224687
77	0xbe97568e	-0.29558223
78	0x3f0570cd	0.52125245
79	0xbd1acbff	-0.037792202
80	0xbe219c72	-0.15782335
81	0x3e296ab3	0.16544609
82	0xbc2d82a8	-0.010590233
83	0xbe714bd2	-0.2356408
84	0x3d76b947	0.060235288
85	0xbebf0ffa	-0.37316877
86	0xbe36ab5b	-0.17838804
87	0xbe6f2982	-0.23355678
88	0xbe2f4ad0	-0.17118382
89	0x3e070611	0.13185908
90	0xbe904fdd	-0.2818593
91	0x3db3c5ce	0.087779626
92	0x3d637436	0.05553075
93	0xbec54d8b	-0.38535723
94	0xbd9bf425	-0.07614926
95	0xbcba1bdb	-0.02271836
96	0xbe22764c	-0.15865439
97	0xbe573f5d	-0.21020265
98	0xbe75f0aa	-0.24017587
99	0xbe7dbab9	-0.2477826
100	0xbdd7844c	-0.105232805
101	0xbdd64cb1	-0.104638465
102	0xbdf4b23d	-0.11948059
103	0xbe4507b4	-0.1924122
104	0xbe3a7633	-0.18209152
105	0x3dacd5e1	0.08439232
106	0xbe52b154	-0.20575458
107	0xbc911925	-0.017712185
108	0xbe58211d	-0.21106382
109	0xbd930015	-0.0717775
110	0x3d96a596	0.07355802
111	0xbeba51b4	-0.3639046
112	0xbe36f226	-0.1786581
113	0xbe330a6d	-0.17484446
114	0xbe245638	-0.16048515
115	0xbef75ff5	-0.48315397
116	0xbe48214f	-0.19543956
117	0xbd000f47	-0.03126457
118	0xbe8d538b	-0.276028
119	0xbeb20e69	-0.3477662
120	0x3cc6ce3d	0.024268264
121	0xbe9cafc4	-0.3060285
122	0xbe90a4e5	-0.28250805
123	0xbdd4dd98	-0.10393828
124	0x3dd15cba	0.10222764
125	0xbe7faa2b	-0.24967258
126	0xbef200ca	-0.47266227
127	0xbe891561	-0.26774123
128	0xbdf20b6f	-0.11818587
129	0x3dc07f38	0.09399265
130	0xbe4a29f9	-0.19742574
131	0xbeb95a1b	-0.36201558
132	0xbd362e46	-0.044477724
133	0xbe8ba851	-0.27276853
134	0xbd89404e	-0.06701718
135	0xbe8f1ed8	-0.2795322
136	0xbe88bacd	-0.26705018
137	0x3cc76ff9	0.024345385
138	0xbde0075b	-0.10938903
139	0xbe8c53aa	-0.2740758
140	0xbd4c6cdb	-0.0499085
141	0x3e4a1beb	0.19737212
142	0x3cb0020d	0.021485353
143	0xbe474d86	-0.19463167
144	0xbd87ecd8	-0.06636971
145	0xbe1b9538	-0.15193641
146	0xbe23bf6d	-0.15990992
147	0x3e7ee495	0.24891885
148	0xbe9319ba	-0.28730565
149	0xbe21dcbd	-0.15806861
150	0xbe2a6221	-0.16638996
151	0xbd85d8af	-0.0653547
152	0xbd6eec2c	-0.0583307
153	0x3ddb878b	0.10719212
154	0xbe0f378a	-0.1398603
155	0xbe3bde01	-0.18346407
156	0xbe60ce14	-0.21953613
157	0xbd5c0dfa	-0.053724267
158	0x3d372112	0.044709273
159	0xbc815f1e	-0.015792426
160	0xbe734a2a	-0.2375876
161	0xbd06b612	-0.03288848
162	0xbd4cb832	-0.04998035
163	0x3e18690e	0.14883825
164	0xbeca5368	-0.3951676
165	0xbeb5ce74	-0.35509074
166	0xbeb11cc5	-0.34592262
167	0xbeb62ba2	-0.35580164
168	0x3daa58a3	0.08317687
169	0xbee408f1	-0.44538072
170	0xbdac9fed	-0.08428941
171	0xbe83cc98	-0.2574203
172	0xbd2b0923	-0.04175676
173	0xbea2d029	-0.3179944
174	0xbe8feae5	-0.28108898
175	0x3d1ed285	0.038774986
176	0xbe9efeee	-0.3105387
177	0xbe194510	-0.14967752
178	0xbed9329c	-0.42421424
179	0xbe887c10	-0.26657152
180	0xbec5923c	-0.3858813
181	0xbe004faf	-0.12530397
182	0xbb9861e0	-0.0046503395
183	0x3c52986e	0.012853725
184	0xbec7e5b7	-0.39042446
185	0xbe43ade8	-0.19109309
186	0xbe76791c	-0.24069637
187	0xbe0f88b9	-0.14017
188	0xbe723cff	-0.2365608
189	0xbe416444	-0.18885905
190	0xbd75fa73	-0.0600533
191	0xbdb9bf0d	-0.09069643
192	0xbd2631ac	-0.040574715
193	0xbbe38b3c	-0.0069440883
194	0xbea450bc	-0.32092845
195	0xbe7edc08	-0.24888623
196	0x3dc550de	0.09634565
197	0xbef3586e	-0.47528404
198	0xbecd6a25	-0.40120044
199	0xbe4a1bb3	-0.19737129
200	0xbe803dae	-0.25047058
201	0x3d7926f8	0.06082818
202	0x3e9f8dae	0.3116278
203	0xbd31dfd7	-0.04342636
204	0xbe9f22a8	-0.31081128
205	0xbe90ed85	-0.28306213
206	0xbe974235	-0.295427
207	0xbdb11499	-0.08646507
208	0xbe851076	-0.2598912
209	0xbe65880d	-0.2241518
210	0xbe93994d	-0.28827897
211	0xbcab6058	-0.020919964
212	0xbe7231b4	-0.23651773
213	0xbe83fdbd	-0.25779524
214	0xbda1681f	-0.07881188
215	0xbe52b4bc	-0.20576757
216	0xbe4a22b0	-0.19739795
217	0xbecb1a45	-0.3966848
218	0x3d35e0d1	0.044403855
219	0xbe2dcbd2	-0.16972283
220	0xbe390534	-0.18068391
221	0xbe8422a4	-0.2580768
222	0xbe9b63b4	-0.30349505
223	0xbe0eeaca	-0.13956752
224	0xbde3c3da	-0.1112134
225	0x3e84cf10	0.25939226
226	0xbdf44f0a	-0.11929138
227	0xbe4a077d	-0.19729419
228	0xbe2fa4ef	-0.17152761
229	0x3de0100c	0.10940561
230	0xbd1f4557	-0.038884487
231	0x3d0add56	0.03390249
232	0xbe120a6f	-0.14261793
233	0xbe1550b4	-0.14581567
234	0xbe00c805	-0.12576301
235	0x3c009cdf	0.007849901
236	0xbd294f1a	-0.041335203
237	0xbefab0fd	-0.48963156
238	0xbe00c4e2	-0.12575105
239	0xbef8298d	-0.484692
240	0xbd90c22d	-0.07068286
241	0xbeaeac91	-0.34116033
242	0xbeb72f49	-0.35778263
243	0xbea034e2	-0.31290346
244	0x3e054bf5	0.13017257
245	0x3e1aad5b	0.15105192
246	0xbd315f0e	-0.04330354
247	0xbe4619bc	-0.19345754
248	0xbeb7384a	-0.35785133
249	0xbdd05495	-0.10172383
250	0xbe868883	-0.26276025
251	0xbe53bebb	-0.20678227
252	0x3dc9f84e	0.098618135
253	0xbe05c1e8	-0.1306225
254	0xbe7710bc	-0.24127477
255	0xbebfc1af	-0.37452456

fc2.weight f4 [128, 256]
0	0xbda1b997	-0.078967266
1	0x3e8d2413	0.27566585
2	0xbdc76266	-0.09735565
3	0xbd5eec54	-0.0544246
4	0x3e8c1cbc	0.27365673
5	0x3d8f412d	0.06994853
6	0xbef1139c	-0.47085273
7	0xbe50b60b	-0.20381944
8	0xbe742551	-0.2384236
9	0x3ee742f0	0.45168257
10	0x3e5fc13e	0.2185106
11	0x3da18ea6	0.07888536
12	0xbe204ce3	-0.1565433
13	0x3dfc50cb	0.123200975
14	0xbe7c8c26	-0.24662837
15	0x3d915e03	0.070980094
16	0x3f083132	0.53200066
17	0x3e1236a8	0.14278662
18	0x3e055aa2	0.13022855
19	0xbe761579	-0.24031629
20	0x3e1acecd	0.1511795
21	0x3d643746	0.055716775
22	0x3f18f043	0.5974161
23	0x3ecae999	0.39631346
24	0xbbae9386	-0.0053276448
25	0xbe12f257	-0.14350258
26	0x3d251286	0.04030087
27	0x3ea78cfd	0.32724753
28	0x3e96f0c1	0.29480556
29	0x3d54877c	0.05188702
30	0x3e3d5ad1	0.18491675
31	0xbe13dca5	-0.14439638
32	0x3d7cb8cf	0.061699685
33	0xbdd1eb4d	-0.10249958
34	0xbee0e976	-0.43928117
35	0xbd1236e4	-0.03569688
36	0x3eb2f10e	0.34949535
37	0x3c025374	0.007954467
38	0x3eb602d1	0.35549024
39	0xbd4e980e	-0.05043798
40	0x3e997f22	0.29979807
41	0xbd3bf30d	-0.04588609
42	0x3d5fd6df	0.054648276
43	0x3cc0d0e0	0.0235371
44	0x3e523810	0.20529199
45	0x3e295ee6	0.16540107
46	0x3e65269e	0.22378013
47	0xbe918278	-0.28419852
48	0x3e0ff8ed	0.14059801
49	0xbddce0c1	-0.10785056
50	0x3eaf91d6	0.34290951
51	0xbde46792	-0.11152567
52	0x3ec48b85	0.38387695
53	0xbe236c44	-0.15959269
54	0x3da0e434	0.07856026
55	0xbe2fc725	-0.17165811
56	0xbddd7e22	-0.108150735
57	0x3e1c81a7	0.15283833
58	0xbeb90fdc	-0.36144912
59	0xbe3395e7	-0.17537652
60	0xbe8b5661	-0.2721434
61	0xbe0dbe19	-0.13842048
62	0xbcff2591	-0.031145843
63	0xbe5df78f	-0.21676467
64	0xbda32cc8	-0.07967526
65	0xbdd68bc5	-0.10475878
66	0xbea58140	-0.32325172
67	0x3e4d2b68	0.2003609
68	0xbe4502d2	-0.19239357
69	0xbe7b36ef	-0.24532674
70	0xbc9df533	-0.01928196
71	0xbe83acdf	-0.25717828
72	0xbc8d425c	-0.017243557
73	0xbe302a50	-0.17203641
74	0xbc5eae09	-0.013591298
75	0xbddfdf0f	-0.10931217
76	0x3ed2524f	0.4107842
77	0x3e7a4f44	0.244443
78	0xbd4d60dc	-0.0501412
79	0xbd149ed2	-0.036284275
80	0xbe46ff2a	-0.19433275
81	0x3d46897a	0.04847095
82	0xbf0d8d22	-0.55293477
83	0x3daed44c	0.08536586
84	0x3ea21398	0.31655574
85	0x3de2fee1	0.110837705
86	0x3eabbad6	0.33540982
87	0x3e03c71f	0.12868927
88	0xbba4fdca	-0.005035137
89	0xbe3afc45	-0.18260296
90	0xbebffd99	-0.37498167
91	0xbe68fdd0	-0.22753072
92	0x3b23918a	0.0024958574
93	0xbd4c8cc2	-0.049938925
94	0xbccc25f7	-0.024920447
95	0x3ae80c41	0.0017703847
96	0x3d9e9243	0.07742741
97	0x3e09271b	0.13393824
98	0x3d67123f	0.056413885
99	0xbea5617f	-0.32300946
100	0x3c8856a5	0.016642878
101	0x3dfb42fb	0.12268635
102	0x3dbdf27e	0.09274767
103	0x3db20232	0.08691825
104	0xbc5267e6	-0.012842154
105	0xbd5428db	-0.051796775
106	0x3e4878a8	0.19577277
107	0x3b89024f	0.0041811834
108	0x3cd18614	0.025576629
109	0x3d97b660	0.07407832
110	0x3da975cf	0.08274423
111	0xbe0befea	-0.13665739
112	0x3e0861c4	0.13318545
113	0xbea5c2ef	-0.32375285
114	0xbcc455e8	-0.023966745
115	0x3e920b6d	0.28524342
116	0xbd38ba0b	-0.0450993
117	0xbdcbdc22	-0.099540964
118	0x3d5792d5	0.052630264
119	0xbda7c026	-0.08190946
120	0x3ea9dca5	0.3317615
121	0x3b46bd85	0.0030325365
122	0xbe10fb64	-0.14158398
123	0x3eb07b4f	0.34469077
124	0x3eec888d	0.4619793
125	0xbc3d9d22	-0.011573108
126	0xbe2c3128	-0.16815627
127	0x3d8c9752	0.068647996
128	0xbec7da1b	-0.3903359
129	0x3dd751de	0.10513662
130	0xbe18efdc	-0.14935249
131	0x3e7033e6	0.23457298
132	0x3e16970a	0.14706054
133	0xbb690281	-0.003555447
134	0xbe23149c	-0.1592583
135	0xbe7c4999	-0.2463745
136	0x3e078666	0.13234863
137	0x3e600dbb	0.21880238
138	0xbe97e6aa	-0.2966817
139	0x3e0595a3	0.13045363
140	0x3dcdec56	0.10054843
141	0xbd8a35e2	-0.067485586
142	0xbdb9f68c	-0.09080228
143	0x3da5a5fb	0.08088299
144	0xbe7d3526	-0.24727306
145	0xbc552051	-0.013008193
146	0x3ebfe8d9	0.37482336
147	0xbe4b0b6e	-0.19828579
148	0x3e99b1b6	0.30018395
149	0x3dabb30b	0.08383759
150	0x3da3dd6a	0.08001216
151	0x3d28d150	0.04121524
152	0x3cc6170a	0.024180908
153	0x3e95663d	0.29179564
154	0x3dabea3e	0.083942875
155	0x3f1f5ed0	0.6225405
156	0x3e119d37	0.14220129
157	0x3e9a9d71	0.30198243
158	0xbe26e758	-0.16299188
159	0x3e225408	0.15852368
160	0xbe10f088	-0.14154255
161	0xbe48ce78	-0.19610012
162	0x3dcb292f	0.099199645
163	0x3e622ca8	0.22087348
164	0xbde4ef4d	-0.111784555
165	0x3eb619e9	0.35566643
166	0xbe3085c0	-0.17238522
167	0xbc8b04c0	-0.016970038
168	0x3ea2ed00	0.31821442
169	0x3dd8a5b9	0.10578484
170	0x3d866f40	0.06564188
171	0x3e8f7c13	0.2802435
172	0x3c14f39c	0.009091284
173	0x3e7ad5e3	0.24495654
174	0xbe6586ff	-0.22414778
175	0x3e279ec6	0.16369161
176	0x3eece0f2	0.4626537
177	0x3ea8daa5	0.32979313
178	0xbeb82baf	-0.35970828
179	0xbe1f35fc	-0.15547937
180	0xbeeb4c01	-0.45956424
181	0xbc3e45b9	-0.011613303
182	0x3e9076d4	0.2821566
183	0xbd2b40db	-0.041809898
184	0xbd6e6ada	-0.05820737
185	0xbe8da1ad	-0.2766241
186	0xbe35541c	-0.17707866
187	0xbd9a7c5a	-0.075432494
188	0xbdae4811	-0.08509839
189	0xbe894c37	-0.2681596
190	0xbe57f012	-0.21087673
191	0x3e8a85d2	0.27055222
192	0x3ec79e94	0.38988173
193	0xbdd13c10	-0.10216534
194	0xbd55262c	-0.052038357
195	0xbcd6860a	-0.026186962
196	0x3e80f5d6	0.25187558
197	0x3f0b863e	0.5450171
198	0x3e6cb805	0.23117073
199	0xbe2a305f	-0.16620015
200	0xbd50bcc8	-0.050961286
201	0xbd90efeb	-0.07077011
202	0x3e905d20	0.2819605
203	0xbe2ea8b1	-0.17056538
204	0x3f211140	0.62916946
205	0xbe00f20b	-0.12592332
206	0xbca32bbe	-0.019918319
207	0x3ca0db51	0.019635828
208	0x3c1b02d9	0.009461128
209	0x3d888c91	0.06667436
210	0x3d117a7a	0.035517193
211	0x3bcc5501	0.006235719
212	0xbdf80f37	-0.12112277
213	0xbea1fff3	-0.31640586
214	0x3e2bffac	0.1679675
215	0xbe17d420	-0.14827013
216	0x3db5a403	0.088691734
217	0x3de0fe1b	0.10985967
218	0x3e0f4294	0.13990241
219	0x3e08774e	0.13326761
220	0x3ce8306c	0.028343402
221	0x3f182eb0	0.5944624
222	0x3e3c0165	0.18359907
223	0x3db7de9d	0.08978007
224	0xbd917a0f	-0.07103359
225	0xbe14c793	-0.14529257
226	0xbdfca648	-0.12336403
227	0x3bc16928	0.005902428
228	0x3e85528e	0.26039547
229	0xbe983d37	-0.29734203
230	0x3e2718da	0.16318074
231	0xbebe1c6c	-0.3713106
232	0x3e304512	0.17213848
233	0x3d68847a	0.056766964
234	0xbe166221	-0.1468587
235	0x3e91d287	0.28480932
236	0xbe8e79d2	-0.27827317
237	0xbd7d1a09	-0.061792407
238	0x3e8dbb5c	0.27682006
239	0x3c91b8b8	0.017788276
240	0xbe1913ee	-0.14949009
241	0xbdb022fc	-0.08600423
242	0xbe29733f	-0.16547869
243	0xbe0ec55f	-0.13942479
244	0xbe22bed2	-0.15893105
245	0xbd896d39	-0.06710286
246	0x3e2f5d42	0.17125419
247	0x3de80d7e	0.113306984
248	0x3e0ab04d	0.13543816
249	0x3eb1c2c3	0.34718904
250	0xbda70799	-0.08155746
251	0x3e1bbdd5	0.15209134
252	0x3d97c1cc	0.07410011
253	0x3cd630ca	0.026146311
254	0x3e912bfc	0.2835387
255	0xbdcd3387	-0.10019594

fc2.bias f4 [128]
0	0xbe399f64	-0.18127209
1	0xbdb84c76	-0.08998959
2	0xbe0e1421	-0.13874866
3	0xbe9b5503	-0.30338296
4	0xbe9486e9	-0.29009178
5	0x3e104c80	0.14091682
6	0xbe4f5771	-0.202482
7	0xbd83a978	-0.06428808
8	0xbe1f8d07	-0.15581141
9	0xbe24c480	-0.16090584
10	0xbe0845fe	-0.1330795
11	0xbed007f9	-0.40631083
12	0x3dec758f	0.1154586
13	0xbe6d4515	-0.23170884
14	0xbe8ce5df	-0.27519128
15	0xbe99b5bf	-0.30021474
16	0x3c497737	0.012296489
17	0xbe2af688	-0.16695607
18	0xbe9dbbc1	-0.30807307
19	0xbe00fe58	-0.12597024
20	0xbe1635f5	-0.1466902
21	0xbe143aaf	-0.14475511
22	0xbc3146f8	-0.010820143
23	0xbe204cfb	-0.15654366
24	0xbde247fe	-0.11048888
25	0xbdf6bc47	-0.1204763
26	0xbd459271	-0.04823536
27	0xbdc24a0c	-0.094867796
28	0xbdfdb9b6	-0.12388937
29	0xbe7e627f	-0.24842261
30	0xbde7bda4	-0.11315468
31	0xbdc90dd9	-0.09817094
32	0xbe647463	-0.22310023
33	0xbd175a20	-0.036951184
34	0xbe739bd3	-0.23789911
35	0xbf0a9ee3	-0.5414869
36	0xbe81be90	-0.253407
37	0xbe560820	-0.20901537
38	0xbdf5a779	-0.119948335
39	0xbe1c2683	-0.15249066
40	0xbd585435	-0.05281468
41	0xbca90cf6	-0.020636063
42	0xbca9c9ba	-0.020726074
43	0x3c9c2876	0.019062262
44	0xbd7196d8	-0.058981746
45	0xbe385202	-0.18000033
46	0xbee3104c	-0.4434837
47	0x3dfbf19b	0.12301942
48	0xbe6b09db	-0.22952978
49	0xbe33e4b4	-0.17567712
50	0xbcaec991	-0.021336349
51	0xbe01912b	-0.12653033
52	0xbde597dc	-0.112106055
53	0xbebc5c0c	-0.36788976
54	0xbe804f3c	-0.2506045
55	0xbdd633bc	-0.10459086
56	0xbe807890	-0.25091982
57	0xbe743172	-0.23846987
58	0x3d561b57	0.052272167
59	0x3daeb139	0.08529896
60	0x3d10303a	0.035202242
61	0x3cfe47ae	0.031040039
62	0xbe4717fe	-0.19442746
63	0xbcd5e291	-0.026109012
64	0xbe680ad0	-0.22660375
65	0xbe712109	-0.23547758
66	0xbdc55e79	-0.0963716
67	0xbdd36932	-0.10322799
68	0xbe5c2b30	-0.2150085
69	0xbd1c1fb2	-0.038116165
70	0xbe30ee02	-0.17278293
71	0xbd7a4a66	-0.061106108
72	0xbe528ef3	-0.20562343
73	0xbf080373	-0.53130263
74	0xbcf12f5c	-0.029441528
75	0xbec65f9e	-0.38744825
76	0xbe8fc789	-0.2808192
77	0xbe4a16b6	-0.19735226
78	0xbea2ebe9	-0.3182061
79	0xbda55477	-0.08072751
80	0xbcd5712e	-0.026054945
81	0xbef9ed16	-0.48813695
82	0xbe80a9a4	-0.25129426
83	0xbe76c70f	-0.24099372
84	0xbbe3bbff	-0.006949901
85	0xbdb22f70	-0.08700454
86	0xbdc76bc6	-0.09737353
87	0xbe2b37b3	-0.16720466
88	0xbe659ac7	-0.22422324
89	0xbea9f4b3	-0.33194503
90	0x3d1ba7fa	0.03800199
91	0xb9597eb4	-0.00020741933
92	0xbe392857	-0.18081795
93	0xbe6dd91d	-0.23227353
94	0xbe882421	-0.26590064
95	0xbf293591	-0.6609736
96	0xbd87ff58	-0.066405
97	0x3debf444	0.11521199
98	0xbdc70e7c	-0.097195596
99	0x3d1a36c6	0.037649892
100	0xbe0239c0	-0.12717342
101	0xbeac7287	-0.33681127
102	0xbd3a7fc9	-0.04553202
103	0xbe1d51ff	-0.1536331
104	0xbc6e18e9	-0.014532306
105	0x3e257092	0.16156223
106	0xbc16baee	-0.009199841
107	0xbe5863da	-0.2113184
108	0xbc7c8c90	-0.015414372
109	0xbda0b7ba	-0.07847543
110	0xbe821ec3	-0.25414094
111	0xbdf45937	-0.11931079
112	0x3d906e80	0.07052326
113	0xbe2af62d	-0.16695471
114	0xbed2f9e4	-0.41206276
115	0xbe3d98c1	-0.18515302
116	0xbe60bbaf	-0.21946596
117	0x3daea135	0.085268416
118	0xbe3f15b4	-0.18660623
119	0xbd9a766b	-0.07542118
120	0xbe7278ab	-0.23678844
121	0xbc6e13b6	-0.014531067
122	0xbde5ad3d	-0.11214683
123	0x3d4030f6	0.046921693
124	0xbdc87740	-0.0978837
125	0xbe963b3a	-0.2934206
126	0xbb9fe0e6	-0.004879105
127	0xbe452b13	-0.19254713

fc3.weight f4 [4, 128]
0	0xbf1911dc	-0.59792876
1	0x3e8fec83	0.28110132
2	0x3f4f8d9e	0.81075466
3	0xbe186513	-0.14882307
4	0xbd8c3e44	-0.06847814
5	0xbe2ab8a3	-0.16671996
6	0x3eaed0e2	0.3414374
7	0xbec88059	-0.39160421
8	0xbe1fcd6a	-0.15605703
9	0x3e94932c	0.29018533
10	0xbef0757b	-0.4696463
11	0x3e468821	0.19387867
12	0xbebac07c	-0.3647498
13	0x3f324c45	0.6964763
14	0x3ebe5ce2	0.3718024
15	0x3f46b6f1	0.77622896
16	0x3d5cfef3	0.053954076
17	0xbee44655	-0.4458491
18	0xbf367fcd	-0.7128876
19	0x3ebb6b85	0.36605468
20	0x3e7f93ec	0.24958771
21	0x3f3fdd68	0.74947214
22	0xbf1b2cac	-0.6061504
23	0x3eb91b28	0.3615353
24	0xbd25b24a	-0.040453233
25	0xbe890aba	-0.26765996
26	0x3e174692	0.14773014
27	0xbf58df43	-0.8471567
28	0xbf4ae990	-0.7926264
29	0xbe4af4a9	-0.19819893
30	0xbf3ce315	-0.73784
31	0xbf312a77	-0.6920542
32	0xbcd4f46b	-0.025995454
33	0xbeaee8f1	-0.34162095
34	0x3f118fa4	0.56859803
35	0x3eccee50	0.40025568
36	0x3f2e8e6d	0.68186074
37	0x3f7d6cab	0.9899394
38	0xbe1f4134	-0.15552217
39	0x3ea52182	0.32252127
40	0xbf2c5827	-0.6732201
41	0x3ec9698d	0.3933834
42	0xbec56979	-0.38557032
43	0x3eb23a68	0.34810185
44	0xbf82a8a0	-1.020771
45	0xbf39c493	-0.72565573
46	0x3eb91195	0.36146227
47	0xbe860dee	-0.26182503
48	0xbf04af05	-0.5182956
49	0x3d9dccae	0.07705055
50	0x3f393008	0.72338915
51	0x3d91bdcd	0.0711628
52	0x3f23a644	0.63925576
53	0x3f58d5c8	0.84701204
54	0x3f306a5b	0.68912286
55	0x3c06352f	0.008191391
56	0xbf0239f9	-0.5086971
57	0x3e53d957	0.20688377
58	0xbb44a101	-0.0030003192
59	0x3e01e627	0.12685452
60	0xbf1218ee	-0.5706929
61	0xbf512287	-0.8169331
62	0x3f56ced7	0.8390936
63	0xbeef0278	-0.4668157
64	0x3e5c1bc6	0.2149497
65	0xbf30748b	-0.6892783
66	0x3d386e8f	0.045027312
67	0xbd04ac4a	-0.03239087
68	0x3d8903b3	0.06690159
69	0x3e41d3df	0.18928479
70	0xbea4ff62	-0.32226092
71	0x3e75a448	0.2398845
72	0xbd130863	-0.03589667
73	0x3ed93b6b	0.42428145
74	0xbecb1d86	-0.39670962
75	0x3e883abd	0.26607314
76	0xbc9890f3	-0.018623805
77	0xbb30b27d	-0.0026961856
78	0xbf252d0e	-0.64521873
79	0x3f4e6ab2	0.80631554
80	0x3f60e7e9	0.87853867
81	0x3f390fc3	0.72289675
82	0xbeafe244	-0.34352314
83	0x3ee9d754	0.45672095
84	0xbe6dbc21	-0.23216297
85	0xbef077f7	-0.46966526
86	0xbf3f0afb	-0.7462613
87	0xbe2ce43b	-0.16883938
88	0x3f5b7dda	0.8573891
89	0xbdec3e00	-0.11535263
90	0xbe1d99d7	-0.15390716
91	0xbf08b867	-0.53406376
92	0xbf5e2546	-0.86775625
93	0x3f256b9f	0.6461734
94	0x3f239989	0.6390615
95	0x3ed83310	0.42226458
96	0x3f61922f	0.88113683
97	0x3b3d093a	0.002884461
98	0x3e8cde50	0.2751336
99	0xbe86e22f	-0.2634444
100	0xbf5d8498	-0.86530447
101	0x3f96e541	1.1788713
102	0x3f040b4d	0.51579744
103	0x3f1fb862	0.6239072
104	0xbf4a0cf2	-0.78926
105	0xbe5c453f	-0.2151079
106	0xbf0f9910	-0.5609293
107	0xbe8f78ee	-0.2802195
108	0xbef2ab79	-0.47396448
109	0x3f002414	0.5005505
110	0x3df3cc0f	0.119041555
111	0xbd8c55dc	-0.06852314
112	0xbeba91e3	-0.36439428
113	0x3c5293d3	0.012852627
114	0x3eaf07ce	0.34185642
115	0xbef70d86	-0.48252505
116	0x3e9480ae	0.29004425
117	0xbd95e623	-0.07319286
118	0xbd157dc9	-0.03649691
119	0x3e25e32f	0.16199945
120	0x3e2c4764	0.16824108
121	0x3ed7f8ff	0.42182156
122	0x3f809c41	1.0047685
123	0x3f4011f7	0.7502741
124	0x3d955ce5	0.07293109
125	0x3ec51cb8	0.38498473
126	0xbee9659b	-0.4558533
127	0x3e3a767f	0.18209265
128	0xbf8037e7	-1.001706
129	0x3de2f206	0.110813186
130	0xbec3f4ef	-0.38272807
131	0x3dd070b2	0.10177745
132	0xbe223a6b	-0.15842597
133	0xbf3423fa	-0.70367396
134	0xbe26ee34	-0.16301805
135	0xbd260426	-0.0405313
136	0xbe61fe09	-0.22069563
137	0xbe5e32ae	-0.2169902
138	0x3efd9278	0.4952581
139	0xbc8904c2	-0.016725902
140	0x3eec4a88	0.46150613
141	0xbf6efb9b	-0.9335267
142	0xbee475d5	-0.4462115
143	0xbdff94f4	-0.124795824
144	0x3edf964d	0.43669358
145	0x3e7c8c6f	0.24662946
146	0x3f81b168	1.0132265
147	0x3ef0b8d0	0.47016
148	0xbd7ab5ed	-0.061208654
149	0xbd995ba5	-0.07488183
150	0x3f4ce44f	0.8003587
151	0x3f1282f9	0.572311
152	0xbf628e16	-0.88498056
153	0x3f4b46cb	0.79404896
154	0x3dcc18a0	0.09965634
155	0xbf452608	-0.77011156
156	0x3ca6b11b	0.020348122
157	0x3e01b29b	0.12665789
158	0xbe9eb12e	-0.30994552
159	0xbf072056	-0.52783716
160	0xbe8d6584	-0.27616513
161	0xbf080e0d	-0.5314644
162	0xbea25c7f	-0.31711194
163	0x3deafbc1	0.114737995
164	0x3e7a3c1e	0.24436995
165	0xbeae1f3a	-0.340082
166	0xbec1e0d9	-0.37866858
167	0xbeaf3683	-0.34221277
168	0x3c806a77	0.015675766
169	0xbe89947b	-0.26871094
170	0xbea94fc0	-0.33068657
171	0xbf04f8aa	-0.5194193
172	0x3d527ae6	0.051386736
173	0x3ea5e0ef	0.32398173
174	0x3dc24d4d	0.094874
175	0xbece65fe	-0.4031219
176	0x3dd424ce	0.103585824
177	0xbf624fbe	-0.88402927
178	0xbed9f686	-0.42570895
179	0x3f3d5343	0.7395517
180	0x3d96b809	0.07359321
181	0xbec7138a	-0.38882095
182	0xbe93c851	-0.28863767
183	0xbf726052	-0.94678223
184	0xbe177cb1	-0.1479366
185	0x3c4324a6	0.011910593
186	0x3f6f1cab	0.9340312
187	0xbdd3a848	-0.103348315
188	0xbe5a426f	-0.21314405
189	0xbe8efcfc	-0.27927387
190	0xbe23c9ff	-0.15995024
191	0xbf091c6e	-0.53559005
192	0xbeb970e9	-0.36218956
193	0x3d5740bb	0.052551966
194	0x3ee50208	0.44728112
195	0xbf68e3ff	-0.90972894
196	0x3e99e42f	0.30056903
197	0x3b96a278	0.0045970045
198	0x3f2404e3	0.64069957
199	0x3f2a183b	0.6644322
200	0x3ea472ca	0.32118827
201	0x3ba40dc3	0.0050065233
202	0xbf2a6b75	-0.66570216
203	0xbf2da878	-0.6783519
204	0xbe06f726	-0.13180217
205	0x3e9a14ee	0.30094093
206	0xbf1e6780	-0.6187668
207	0xbf2928d7	-0.6607794
208	0xbe7b327d	-0.24530979
209	0xbdab2bbb	-0.0835795
210	0x3f15fdc6	0.5859035
211	0x3ea3be2e	0.31981033
212	0x3e5c742e	0.21528694
213	0x3e2ad3ca	0.16682354
214	0x3db2cd79	0.08730597
215	0x3f17a571	0.5923682
216	0xbd763fd3	-0.06011946
217	0x3b780625	0.003784546
218	0xbf7be300	-0.9839325
219	0xbc463d4b	-0.012099574
220	0x3c005507	0.007832772
221	0xbeebe572	-0.4607349
222	0xbf00b51b	-0.50276345
223	0x3ee35030	0.44397116
224	0xbe8f0b29	-0.27938202
225	0x3e36e690	0.1786139
226	0xbcb72e7c	-0.022361033
227	0xbe97e257	-0.2966487
228	0x3f007e2d	0.5019253
229	0xbe296f19	-0.16546287
230	0x3e307555	0.17232259
231	0xbe896d3b	-0.2684115
232	0xbe9fe457	-0.31228897
233	0xbf52ca17	-0.82339615
234	0x3d027117	0.031846132
235	0x3e42e7c6	0.19033727
236	0x3eaf540b	0.34243807
237	0xbe34f17c	-0.17670244
238	0x3f72d168	0.9485078
239	0x3ecf3ea1	0.4047747
240	0xbf515610	-0.81771946
241	0x3c3ac676	0.011399856
242	0xbf6a1c5d	-0.9144953
243	0xbf061b81	-0.5238572
244	0x3f974b52	1.1819861
245	0x3f26eb38	0.65202665
246	0x3f63cd07	0.8898472
247	0x3f818cf4	1.012114
248	0x3f140b7c	0.57830024
249	0xbed49b8a	-0.41524917
250	0xbe41a376	-0.18910012
251	0xbf07af10	-0.530015
252	0x3f224f6c	0.6340244
253	0xbeaabb32	-0.33345944
254	0xbeddf61d	-0.43351832
255	0x3f39c62c	0.7256801

fc3.bias f4 [4]
0	0xbd12dd7d	-0.03585576
1	0xbe304a20	-0.17215776
2	0x3df94ff0	0.1217345
3	0x3dd94f46	0.10610823

bn1.weight f4 [256]
0	0x3f56979d	0.83825094
1	0x3f6bc216	0.92093027
2	0x3f2a84b2	0.66608727
3	0x3f63bbdf	0.88958544
4	0x3f3f78e1	0.7479382
5	0x3ec2987d	0.38006964
6	0x3f63acd4	0.8893559
7	0x3f09fe40	0.5390358
8	0x3f91f4f2	1.1402876
9	0x3fb724b6	1.4308078
10	0x3f6316cd	0.88706666
11	0x3f060665	0.5235351
12	0x3f14ff71	0.5820227
13	0x3f654f77	0.8957438
14	0x3f843de7	1.0331391
15	0x3f1a127e	0.60184467
16	0x3f8b906b	1.0903448
17	0x3f59b72f	0.8504514
18	0x3fa5a33d	1.2940441
19	0x3f94ca5e	1.1624258
20	0x3f82310d	1.0171219
21	0x3f35655a	0.70857775
22	0x3f8be521	1.09293
23	0x3f738e1d	0.9513872
24	0x3f77b25c	0.9675653
25	0x3f5a90af	0.8537702
26	0x3f4e8152	0.8066608
27	0x3fa3abee	1.2786844
28	0x3f988e8e	1.1918504
29	0x3f8ab5a2	1.083668
30	0x3f10ebc5	0.56609756
31	0x3f6e9bda	0.9320656
32	0x3ed255bc	0.41081035
33	0x3f710508	0.941483
34	0x3f53bad3	0.82706946
35	0x3f775fc7	0.9663052
36	0x3fadab2a	1.356786
37	0x3f036a8c	0.5133445
38	0x3f62af3b	0.8854863
39	0x3f7bc145	0.9834178
40	0x3f4036a0	0.7508335
41	0x3f6654e3	0.89973277
42	0x3f962624	1.173039
43	0x3f37eb11	0.7184306
44	0x3faab297	1.3335751
45	0x3f296c54	0.6618092
46	0x3f66537e	0.8997115
47	0x3f4dce6a	0.8039309
48	0x3f8847ce	1.0646913
49	0x3f52b17c	0.8230207
50	0x3f60fb72	0.87883675
51	0x3f4090db	0.7522103
52	0x3f56ba31	0.83877856
53	0x3f099e97	0.53757614
54	0x3f33c3fe	0.70220935
55	0x3f0d172b	0.55113477
56	0x3fa97769	1.3239566
57	0x3f9af2ee	1.2105386
58	0x3f93a32e	1.1534173
59	0x3f00391b	0.50087136
60	0x3f2bcb6d	0.6710728
61	0x3f3cda9e	0.73771083
62	0x3f037c0b	0.5136115
63	0x3f77a638	0.96738005
64	0x3f61c183	0.881859
65	0x3f010823	0.5040304
66	0x3f9a1480	1.2037506
67	0x3f2dd836	0.67908037
68	0x3f84dc65	1.0379759
69	0x3f506ebe	0.8141898
70	0x3f5b3621	0.8562947
71	0x3f45da6f	0.7728643
72	0x3f34ff66	0.7070221
73	0x3f907a4d	1.1287323
74	0x3f810ef9	1.0082694
75	0x3f231a49	0.6371198
76	0x3fb7b773	1.4352859
77	0x3f3390eb	0.70143
78	0x3f5efd4a	0.8710524
79	0x3f7dfb95	0.9921201
80	0x3f87685d	1.0578724
81	0x3f34af5d	0.70580083
82	0x3f30dc2a	0.69085944
83	0x3f8a4652	1.080271
84	0x3f816577	1.010909
85	0x3f2f86ca	0.68565047
86	0x3f1cbf61	0.6122952
87	0x3f1d6de3	0.614958
88	0x3f570b1d	0.8400133
89	0x3f8d96a3	1.1061596
90	0x3f8394f1	1.0279828
91	0x3f8c1cf4	1.0946336
92	0x3f7ea737	0.994739
93	0x3f1d8240	0.6152687
94	0x3f2ba506	0.6704868
95	0x3f1b4c9f	0.6066379
96	0x3f5e15c9	0.8675199
97	0x3f9b010a	1.2109692
98	0x3f8592dc	1.0435443
99	0x3f435d67	0.76314396
100	0x3f22097a	0.6329571
101	0x3f8507cf	1.0393008
102	0x3f9c0d3f	1.2191542
103	0x3eeb0889	0.4590495
104	0x3f6fc75b	0.9366357
105	0x3f2ccbce	0.6749848
106	0x3f8736fc	1.0563655
107	0x3f02a290	0.510293
108	0x3fa1aa7c	1.2630153
109	0x3f328bd5	0.69744617
110	0x3f1e4709	0.6182714
111	0x3f35b5a3	0.7098028
112	0x3f7067c8	0.9390836
113	0x3f2a2d2e	0.6647519
114	0x3f065e31	0.52487475
115	0x3f045df8	0.51705885
116	0x3f513835	0.8172639
117	0x3f2bb29e	0.67069423
118	0x3f987168	1.1909609
119	0x3f77bc7d	0.96771985
120	0x3f4a52c7	0.7903256
121	0x3f4c46c3	0.79795474
122	0x3f23c884	0.6397784
123	0x3f847244	1.0347371
124	0x3f4870d2	0.7829715
125	0x3f2eef81	0.68334204
126	0x3f171e21	0.5903035
127	0x3f687244	0.90799356
128	0x3eeec624	0.46635544
129	0x3efaf361	0.49013808
130	0x3f59b124	0.8503592
131	0x3f04234e	0.5161637
132	0x3f53d129	0.8274103
133	0x3f802b4b	1.0013212
134	0x3f5c27ce	0.8599824
135	0x3f312a3a	0.6920506
136	0x3f4524ec	0.77009463
137	0x3f05e2aa	0.52298987
138	0x3f28d104	0.6594393
139	0x3f103813	0.5633556
140	0x3f310c42	0.6915933
141	0x3f8be881	1.093033
142	0x3f916cfe	1.1361387
143	0x3f6c7a4a	0.923741
144	0x3f5dde8c	0.86667705
145	0x3f2505a8	0.64461756
146	0x3f17a873	0.5924141
147	0x3f80eb15	1.0071741
148	0x3f75567f	0.9583511
149	0x3f3429dc	0.7037637
150	0x3f66eea1	0.9020787
151	0x3f4ec570	0.80770016
152	0x3f895a3c	1.0730662
153	0x3f2c21aa	0.6723887
154	0x3f8282c9	1.0196162
155	0x3eefc5be	0.46830553
156	0x3f40c6fa	0.75303614
157	0x3f43acb7	0.76435417
158	0x3f21f848	0.6326947
159	0x3f19d0ca	0.6008421
160	0x3f268d66	0.65059507
161	0x3f2e7a53	0.681554
162	0x3f65efac	0.89818835
163	0x3f5e14de	0.8675059
164	0x3f82dc32	1.0223448
165	0x3f39755b	0.72444695
166	0x3f4c23fd	0.79742414
167	0x3f62f755	0.8865865
168	0x3f831270	1.0240002
169	0x3f5721c8	0.8403592
170	0x3f8648b1	1.0490934
171	0x3f62589e	0.8841647
172	0x3f0d9593	0.5530636
173	0x3f3920e2	0.723158
174	0x3fac361f	1.3454016
175	0x3f432ea4	0.7624304
176	0x3f66fc94	0.90229154
177	0x3f2c940c	0.674134
178	0x3f58f06f	0.8474187
179	0x3f06c7cd	0.5264862
180	0x3f228f94	0.6350033
181	0x3f3bc7d0	0.73351765
182	0x3f648431	0.8926421
183	0x3eff6e3a	0.49888784
184	0x3f499fc6	0.7875942
185	0x3f174510	0.59089756
186	0x3f218061	0.63086516
187	0x3f70566f	0.9388189
188	0x3f855ae1	1.0418359
189	0x3f2e96ee	0.6819905
190	0x3f2b4779	0.66905934
191	0x3e8d5ff5	0.27612272
192	0x3f5d4782	0.8643724
193	0x3f54b8d4	0.83094525
194	0x3f369d6b	0.7133395
195	0x3f268283	0.65042895
196	0x3f11a048	0.56885195
197	0x3f0233d8	0.5086036
198	0x3f41984f	0.7562303
199	0x3f00b5bd	0.5027731
200	0x3ef5b924	0.47992814
201	0x3f4fc75d	0.8116358
202	0x3f53efb9	0.8278766
203	0x3f4268a7	0.75940937
204	0x3f3d03c1	0.73833853
205	0x3f8f4b3f	1.1194838
206	0x3f10db6a	0.565848
207	0x3f75e2b5	0.9604905
208	0x3f16ebbf	0.5895347
209	0x3f6ad09e	0.91724575
210	0x3f6f419c	0.93459487
211	0x3f22e856	0.63635767
212	0x3f4b7c53	0.7948658
213	0x3f84df4c	1.0380645
214	0x3f002bfb	0.5006711
215	0x3f4feb8d	0.81218797
216	0x3f5ffe8b	0.87497777
217	0x3fb98133	1.4492553
218	0x3fa04c40	1.252327
219	0x3f4f8fed	0.8107899
220	0x3f7b0fd3	0.9807102
221	0x3f64b681	0.8934098
222	0x3f523309	0.82109123
223	0x3f4df131	0.80446154
224	0x3f70bca0	0.9403782
225	0x3f74110a	0.953385
226	0x3f4093cb	0.75225514
227	0x3f441769	0.7659822
228	0x3ed3b46d	0.4134859
229	0x3f67eb44	0.9059336
230	0x3f4d05e5	0.8008712
231	0x3f6311d3	0.8869907
232	0x3f6b3f92	0.91893876
233	0x3f121b53	0.57072943
234	0x3f1210d3	0.5705692
235	0x3f6e56d2	0.9310123
236	0x3f4aa15d	0.7915247
237	0x3f4dd0d2	0.8039676
238	0x3f5efe44	0.8710673
239	0x3f3ac7d2	0.7296115
240	0x3f275e02	0.6537782
241	0x3f8e0c61	1.1097528
242	0x3f35b252	0.7097522
243	0x3f375d28	0.7162652
244	0x3f80da65	1.0066649
245	0x3f8857a0	1.0651741
246	0x3f73a005	0.95166045
247	0x3f12b5d8	0.5730872
248	0x3f073bc5	0.52825576
249	0x3f59e9ea	0.8512255
250	0x3f5807d3	0.8438694
251	0x3f199cb6	0.60004747
252	0x3f58b0ab	0.84644574
253	0x3f4c6536	0.79841936
254	0x3f8d6092	1.1045096
255	0x3f25c246	0.6474956

bn1.bias f4 [256]
0	0xbdd5b310	-0.10434544
1	0x3e0977c5	0.13424595
2	0x3e0b212d	0.13586874
3	0x3e1ee670	0.15517592
4	0x3ca0bdc1	0.019621732
5	0xbe9fcf55	-0.3121287
6	0x3e90eff2	0.28308064
7	0xbe038132	-0.12842253
8	0x3d628bff	0.055309292
9	0x3dbdd9df	0.09270071
10	0xbc4decb0	-0.012568638
11	0xbdd643ed	-0.104621746
12	0xbd0a1bb2	-0.03371782
13	0x3df7d82f	0.121017806
14	0x3e736a17	0.23770939
15	0xbdedeed1	-0.11617816
16	0xbe651d84	-0.2237454
17	0xbdc95e25	-0.0983241
18	0x3df5b18d	0.11996756
19	0xbda4f4af	-0.08054482
20	0x3bc5b29f	0.006033256
21	0xbeb75a77	-0.35811207
22	0xbcb21fba	-0.021743644
23	0x3e35040a	0.17677322
24	0x3dcd2fb6	0.10018866
25	0x3da2ff5b	0.079588614
26	0xbda150a1	-0.07876707
27	0x3e043d1e	0.1291394
28	0xbd7130da	-0.05888448
29	0x3e892581	0.26786426
30	0x3c18dcf8	0.009330027
31	0x3e9baead	0.30406705
32	0x3e34aadb	0.17643301
33	0x3e949bf2	0.29025227
34	0x3d006c13	0.031353068
35	0x3e010afb	0.12601845
36	0x3c869a90	0.016431123
37	0xbe6d8228	-0.23194182
38	0x3e656bce	0.22404405
39	0x3d55bf44	0.05218436
40	0x3de292fe	0.11063193
41	0x3ecf1249	0.40443638
42	0x3e507f59	0.2036108
43	0x3ea24fab	0.31701407
44	0x3e5b8d0a	0.21440521
45	0xbd86094f	-0.06544744
46	0x3ddca1dc	0.1077306
47	0xbdc9dd72	-0.098566905
48	0x3e1be8aa	0.15225473
49	0x3eb22eb9	0.34801272
50	0xbd7c3884	-0.061577335
51	0x3dbd8866	0.092545316
52	0x3e8b2b58	0.27181506
53	0xbc0ec23e	-0.008713303
54	0xbe023152	-0.12714127
55	0x3e8a9f78	0.2707479
56	0x3ef21632	0.4728256
57	0x3d9c24aa	0.076241806
58	0x3e7dd5aa	0.24788538
59	0x3e7bb165	0.2457939
60	0x3dc4b8e5	0.09605578
61	0x3e88498d	0.26618615
62	0xbd16bf48	-0.036803514
63	0x3ddc29f4	0.107501894
64	0x3e6a0eb6	0.22857174
65	0x3e23fada	0.16013661
66	0x3e0c2958	0.13687646
67	0xbe2f223a	-0.171029
68	0x3e15cd2b	0.14629047
69	0x3da85341	0.082190044
70	0x3c54d262	0.012989612
71	0x3c541dbe	0.012946544
72	0x3dd0e5f8	0.10200113
73	0x3dd8ba38	0.105823934
74	0x3dd36982	0.103228584
75	0xbc8ac60a	-0.016940136
76	0x3e44f301	0.19233324
77	0xbd46247b	-0.048374634
78	0x3d989c6c	0.0745171
79	0x3e31bb01	0.17356493
80	0x3ee06f71	0.43835023
81	0xbe9e1bfb	-0.30880722
82	0x3d46af4e	0.048507027
83	0x3da04222	0.07825114
84	0x3da1c399	0.078986354
85	0x3e3d6859	0.18496837
86	0xbe2b07a3	-0.16702132
87	0x3e7f1986	0.2491208
88	0xbd2659bd	-0.040612925
89	0xbe5ada83	-0.21372418
90	0xbca9cb01	-0.020726683
91	0x3c59b033	0.013286638
92	0x3e86f65d	0.26359835
93	0x3db974de	0.09055494
94	0xbd26bc46	-0.040706895
95	0x3da13a57	0.078724556
96	0x3e960f9f	0.29308793
97	0x3ea1ac9a	0.31576997
98	0x3e80ac85	0.25131622
99	0xbcf40610	-0.029788047
100	0x3b48d9c1	0.003064737
101	0x3e067f28	0.13134444
102	0x3e872a0d	0.2639927
103	0x3cc6f1ed	0.024285281
104	0x3e03b521	0.12862064
105	0x3eb4d2d2	0.35317093
106	0x3dc57ce7	0.09642964
107	0x3d80b715	0.0628492
108	0x3d8bd660	0.06827998
109	0x3cf2526b	0.029580316
110	0xbe5e5d1e	-0.21715209
111	0xbe11c1da	-0.14234105
112	0x3da45bc9	0.08025319
113	0xbdcfc965	-0.10145835
114	0x3e431289	0.1905004
115	0x3c88e9c2	0.016713027
116	0x3d2f3c27	0.042781975
117	0x3ea963fb	0.33084092
118	0x3efcc8d2	0.49371964
119	0x3e17146f	0.14753889
120	0xbd50895e	-0.050912254
121	0x3dd37fe0	0.103271246
122	0x3dea3ce0	0.11437392
123	0x3ea76476	0.32693833
124	0x3e7c38d8	0.24631059
125	0xbcd2d5fe	-0.025736805
126	0x3e5cef17	0.2157558
127	0x3e309e6f	0.17247938
128	0x3e349c5c	0.17637771
129	0x3e1aef5e	0.15130374
130	0x3dfd880c	0.123794645
131	0x3e308296	0.17237315
132	0x3dd458fd	0.10368536
133	0xbd1dcf45	-0.038527746
134	0xbca6c3b4	-0.02035699
135	0x3c0bc21d	0.008530167
136	0xbd300e54	-0.042982414
137	0x3e7b30c0	0.24530315
138	0xbdd6fe24	-0.10497692
139	0x3e016b45	0.12638576
140	0x3da46faa	0.08029111
141	0x3dd46a9d	0.10371897
142	0x3e8371e2	0.25672823
143	0x3e2676bf	0.16256236
144	0x3c7fa674	0.01560365
145	0xbe988753	-0.29790744
146	0xbd4af59e	-0.049550645
147	0x3e57b34e	0.21064493
148	0x3e97477c	0.29546726
149	0x3cbc72d9	0.023003982
150	0x3df691d0	0.1203953
151	0xbdfaa161	-0.12237812
152	0x3e6b7df6	0.22997269
153	0xbdcd946e	-0.10038076
154	0x3e8414c0	0.2579708
155	0x3b0af9ef	0.00212061
156	0xbd8d2d03	-0.06893351
157	0x3d1800be	0.037110083
158	0x3de1efca	0.11032064
159	0x3ec81b02	0.39083105
160	0x3dc1ebe5	0.094688214
161	0xbd53c516	-0.051701628
162	0x3dd3019c	0.10303041
163	0x3df606b2	0.12012996
164	0x3e3ade0e	0.1824877
165	0x3d02bc9e	0.03191816
166	0x3e05f8c1	0.13083173
167	0x3e9137d3	0.28362903
168	0xbdcf6213	-0.10126128
169	0xbe0af23c	-0.13568968
170	0x3d5fc514	0.054631308
171	0x3e2fccd5	0.17167981
172	0xbe7efae1	-0.2490039
173	0x3e193efc	0.14965433
174	0x3d805b38	0.062673986
175	0xbe3426cb	-0.17592923
176	0x3ded52d2	0.11588062
177	0x3da0e23c	0.07855651
178	0x3dfcf6ee	0.123517856
179	0xbe51aa54	-0.20475131
180	0x3e65715e	0.22406527
181	0x3dc6e297	0.09711187
182	0xbcc00fb2	-0.023444984
183	0xbdea4aaa	-0.11440022
184	0x3aa5e983	0.0012658093
185	0x3db49ac0	0.08818579
186	0x3e8ac9b4	0.27107012
187	0x3d692df3	0.056928586
188	0x3e1d02a5	0.1533304
189	0xbb8d1451	-0.0043054004
190	0x3e2abaea	0.16672865
191	0xbd6be818	-0.05759439
192	0x3dde66fe	0.10859488
193	0xbc5d6a3c	-0.013514098
194	0x3e23e267	0.16004334
195	0xbd1a8316	-0.03772267
196	0xbbd33d4f	-0.0064465175
197	0xbdb33736	-0.08750765
198	0xbe31d2da	-0.1736559
199	0xbd826fd9	-0.063689895
200	0xbd81bb16	-0.06334512
201	0x3e8033ce	0.25039524
202	0x3dee15f7	0.11625283
203	0x3dcccbc5	0.099998035
204	0xbc918aab	-0.017766317
205	0x3eb4b5e1	0.35295013
206	0x3ebb4566	0.36576384
207	0x3ea9271a	0.33037645
208	0xbb779734	-0.0037779333
209	0x3ced9fe1	0.0290069
210	0x3e0f721b	0.14008372
211	0x3e1a5107	0.15069972
212	0x3d8626ef	0.06550395
213	0xbe0d85e4	-0.13820606
214	0xbaefa3c9	-0.0018283065
215	0x3e6c19ff	0.23056792
216	0xbe87061a	-0.26371843
217	0x3d30b43e	0.043140642
218	0x3e73b93d	0.23801132
219	0xbd9dbfe9	-0.077026196
220	0x3e40f068	0.18841708
221	0x3d04035e	0.032229774
222	0xbdcaf2f3	-0.0990962
223	0x3d7dcc40	0.061962366
224	0x3d9cf581	0.07664014
225	0xbd5c7136	-0.053818904
226	0x3e18b1b2	0.14911535
227	0x3cf269e7	0.029591514
228	0xbeafa564	-0.3430587
229	0xbdbc043b	-0.091804944
230	0x3e1e2acb	0.15446012
231	0xbe04ceff	-0.12969588
232	0xbe77c502	-0.24196246
233	0xbd0261fa	-0.03183172
234	0xbdb83060	-0.08993602
235	0xbd7b7b69	-0.06139699
236	0x3db586d1	0.08863605
237	0x3ba1c46f	0.004936747
238	0x3d830505	0.06397442
239	0xbe1cfe52	-0.1533139
240	0x3e83b82b	0.25726447
241	0x3e5a1c5d	0.21299882
242	0x3e22bd12	0.15892437
243	0x3e0f6931	0.14004971
244	0xbda273e5	-0.079322614
245	0x3d33bf98	0.04388389
246	0xbdeb5f88	-0.114928305
247	0x3ea19af2	0.31563526
248	0x3e9f0486	0.3105814
249	0x3e455358	0.19270074
250	0xbd486927	-0.048928406
251	0x3b840872	0.004029327
252	0xbd6ecf62	-0.058303244
253	0xbc305483	-0.010762337
254	0xbcb73356	-0.022363346
255	0x3e48c639	0.19606866

bn1.running_mean f4 [256]
0	0x3e17b14e	0.1481373
1	0x3e19e16b	0.15027396
2	0x3e90c7da	0.28277475
3	0x3e335261	0.17511894
4	0x3f13b3aa	0.5769602
5	0x3d7dcd03	0.061963093
6	0x3e671f2c	0.22570485
7	0x3da0c55c	0.07850143
8	0x3eadd4a0	0.33951283
9	0x3d0bd2a6	0.034136437
10	0x3de9468d	0.113904096
11	0x3d373c90	0.04473549
12	0x3d226d67	0.039655115
13	0x3e438a33	0.19095688
14	0x3e19ea88	0.15030873
15	0x3eb66e29	0.3563092
16	0x3e1df5be	0.15425774
17	0x3e4f6528	0.20253432
18	0x3d3eeaa4	0.04661049
19	0x3e4ab2b6	0.19794735
20	0x3eb77d23	0.3583766
21	0x3db0374c	0.08604297
22	0x3e75bde4	0.23998219
23	0x3dbfe995	0.09370724
24	0x3e059cb6	0.13048062
25	0x3e81e18d	0.25367394
26	0x3ec3d761	0.3825026
27	0x3db254b2	0.087075606
28	0x3df08e07	0.117458396
29	0x3e89d90b	0.26923403
30	0x3e2451e7	0.16046868
31	0x3fcb67d2	1.5891058
32	0x3e1711fe	0.14752957
33	0x3dcf5771	0.101241
34	0x3d96b4be	0.073586926
35	0x3e9fa499	0.31180266
36	0x3db555eb	0.08854278
37	0x3e18ac28	0.14909422
38	0x3e28381f	0.16427658
39	0x3e1e9623	0.1548696
40	0x3e297c7d	0.16551395
41	0x3efe37f3	0.4965206
42	0x3e0a8877	0.1352862
43	0x3e5d21bd	0.21594901
44	0x3e408608	0.18801129
45	0x3e825fe2	0.25463778
46	0x3e06e4de	0.13173243
47	0x3ea8ad2a	0.32944614
48	0x3d9c0f4b	0.076201044
49	0x3e8044ef	0.25052592
50	0x3de5dc66	0.11223678
51	0x3e332f56	0.17498526
52	0x401ef4cd	2.4836915
53	0x3ece50d9	0.40296057
54	0x3f17d9cc	0.59316707
55	0x3f0c8ef6	0.5490564
56	0x3dd20ff6	0.102569506
57	0x3e84759a	0.25870973
58	0x3eb0170e	0.3439259
59	0x3e409df0	0.18810248
60	0x3e382963	0.17984538
61	0x3eb517fe	0.35369867
62	0x3efe6ed4	0.4969393
63	0x3dea6ba6	0.114463136
64	0x3e2b8d41	0.16753103
65	0x3f58e150	0.847188
66	0x3e735430	0.23762584
67	0x3e154f99	0.14581145
68	0x3ea7ffc0	0.3281231
69	0x3e6cc3e7	0.23121606
70	0x3e7eb5a4	0.24873978
71	0x3df0524c	0.11734447
72	0x3f1be21f	0.6089191
73	0x3df849ab	0.12123426
74	0x3d728aa6	0.059214257
75	0x3eaeafbc	0.3411845
76	0x3e249ea6	0.16076145
77	0x3e139f51	0.14416243
78	0x404bc61a	3.1839662
79	0x3dad3969	0.08458216
80	0x3ea95f38	0.3308046
81	0x3f124038	0.5712924
82	0x3ee230c7	0.4417784
83	0x3e37f430	0.17964244
84	0x3f53b84f	0.8270311
85	0x3d08f60b	0.03343777
86	0x3dfc5ddf	0.12322592
87	0x3e5d9808	0.21640027
88	0x3d6e6869	0.058205042
89	0x3fc710cd	1.5552002
90	0x3ddedbc6	0.10881762
91	0x3f743c00	0.9540405
92	0x3f73c0ea	0.9521624
93	0x3db806d9	0.08985681
94	0x3f39169d	0.7230013
95	0x3f0e7860	0.5565243
96	0x3f05eecb	0.52317494
97	0x3e2c2d34	0.16814119
98	0x3e030c25	0.12797602
99	0x3e42bd70	0.19017577
100	0x3ceb0785	0.028690109
101	0x3d4650b9	0.048416827
102	0x3e6154be	0.22004983
103	0x3e5ab282	0.21357158
104	0x3d8245da	0.063609794
105	0x3f207383	0.62676257
106	0x3dee322c	0.11630663
107	0x3fa2e4cf	1.2726077
108	0x3d96434f	0.07337057
109	0x3e85c000	0.26123047
110	0x3ecfd196	0.4058959
111	0x3d2a06f5	0.04151054
112	0x3ea386d9	0.31938818
113	0x3dd4b39e	0.10385822
114	0x3e8f3a3d	0.2797412
115	0x3c8a63d6	0.016893309
116	0x3eb427c7	0.35186598
117	0x3ecd0e43	0.40049943
118	0x3e1cbdd1	0.15306784
119	0x3e18e094	0.1492942
120	0x3d9f0c1f	0.07765984
121	0x3d726eb9	0.059187625
122	0x3e5e67aa	0.21719232
123	0x3ea468a9	0.321111
124	0x3f98ac5a	1.1927598
125	0x3ebfec61	0.3748503
126	0x3e01f460	0.12690878
127	0x3e1039f6	0.1408461
128	0x3eb3dafb	0.35128006
129	0x3f1ddc10	0.61663914
130	0x3dc631af	0.09677445
131	0x3d959fe9	0.07305891
132	0x3c92be0c	0.017912887
133	0x3e712e39	0.23552789
134	0x3d3e62c2	0.0464809
135	0x3d93cde7	0.07217007
136	0x3ee2d7b0	0.44305182
137	0x3db06657	0.0861327
138	0x3e4f5504	0.20247275
139	0x3dadaf2d	0.08480678
140	0x3f8a7a9e	1.081867
141	0x3f251fb7	0.6450152
142	0x3f099566	0.5374359
143	0x3e87924f	0.26478812
144	0x3d4836e4	0.048880473
145	0x3e7ee68a	0.24892631
146	0x3edb4a61	0.42830184
147	0x3f2db3d1	0.67852503
148	0x3de796c6	0.113080546
149	0x3d2c3f3b	0.04205249
150	0x3f45b68d	0.77231675
151	0x3e840c07	0.25790426
152	0x3e44dab5	0.19224055
153	0x3eebda22	0.4606486
154	0x3da3d73b	0.08000036
155	0x3efbc641	0.49174693
156	0x3f2156ce	0.6302308
157	0x3d233f73	0.03985543
158	0x3eedbffe	0.4643554
159	0x3f32cb75	0.698417
160	0x3e6b1996	0.22958979
161	0x3dba89c0	0.09108305
162	0x3d8e228b	0.06940182
163	0x3eab4def	0.33457896
164	0x3e0be1fe	0.13660428
165	0x3dae1d0a	0.085016325
166	0x3e43d834	0.19125444
167	0x3e790a82	0.24320415
168	0x3ebcf57a	0.36906034
169	0x3e941801	0.28924564
170	0x3e3bc819	0.1833805
171	0x3d1ef17d	0.03880452
172	0x3e61705e	0.22015521
173	0x3db239d8	0.08702439
174	0x3e12908b	0.14312951
175	0x3f008c71	0.50214297
176	0x3e5df697	0.21676098
177	0x3e24e231	0.1610191
178	0x3eaf30e7	0.34216997
179	0x3e529ef1	0.20568444
180	0x3d843be6	0.06456737
181	0x3ddb9b34	0.10722962
182	0x3d850998	0.064959705
183	0x3eda28c5	0.4260923
184	0x3d9d7022	0.07687403
185	0x3d2ca59c	0.042150125
186	0x3e3a7514	0.18208724
187	0x3e95ac5b	0.2923306
188	0x3e0d2ac2	0.13785842
189	0x3e54b2bf	0.20771311
190	0x3edc9f21	0.43090156
191	0x3ed7b012	0.42126518
192	0x3e7e1a9e	0.24814841
193	0x3dba575d	0.090986945
194	0x3ded3f5d	0.11584351
195	0x3d9fbdbf	0.07799863
196	0x3e1cdb4d	0.15318032
197	0x3d517712	0.051138945
198	0x3ec05faa	0.37572986
199	0x3df94ecd	0.12173233
200	0x3ea8f48b	0.3299907
201	0x3f04411e	0.5166186
202	0x3f941621	1.1569253
203	0x3e93e2dc	0.28884017
204	0x3e170e49	0.14751543
205	0x3d9c84eb	0.076425396
206	0x3e06c073	0.13159351
207	0x3e0e95bf	0.13924311
208	0x3db7aa4d	0.08968029
209	0x3d6576c1	0.056021456
210	0x3d1aef79	0.037826035
211	0x3ebb2a7b	0.36555848
212	0x3dc61564	0.09672049
213	0x3f061c6d	0.52387124
214	0x3e937c9f	0.28806016
215	0x3e6a330d	0.22871037
216	0x3f1b8b63	0.6075956
217	0x3e283e10	0.16429925
218	0x3e98d50e	0.29850048
219	0x3d748e7c	0.059706196
220	0x3e9f809e	0.31152815
221	0x3e9d0dee	0.3067469
222	0x3e0bfb56	0.13670096
223	0x3e7a6cad	0.24455519
224	0x3da4ac84	0.08040717
225	0x3f8cce39	1.1000434
226	0x3d18f161	0.037339572
227	0x3defcf05	0.11709408
228	0x3e229412	0.15876797
229	0x3e34e30b	0.17664735
230	0x3e9781b0	0.2959113
231	0x3eea7f65	0.4580032
232	0x3e4766ad	0.19472761
233	0x3e2201b8	0.15820968
234	0x3d8de75a	0.069288924
235	0x3f15fdf7	0.58590645
236	0x3e31f217	0.17377506
237	0x391acf38	0.0001476378
238	0x3e6b2a3a	0.22965327
239	0x3e53f3e1	0.20698501
240	0x3ebfd086	0.37463778
241	0x3ddf3da2	0.109004274
242	0x3ddf2a58	0.10896748
243	0x3ea2c4cc	0.3179077
244	0x3f2ad1ec	0.66726565
245	0x3e15b7c6	0.14620885
246	0x3f2d66ef	0.6773519
247	0x3d1b23ad	0.03787582
248	0x3e5aba86	0.21360216
249	0x3e21cd3f	0.15800951
250	0x3d9c89c3	0.076434635
251	0x3f53561a	0.82553256
252	0x3e3f66f7	0.18691622
253	0x3f114e56	0.56760156
254	0x3ecb7b3f	0.39742467
255	0x3e0bc6bc	0.1365003
