checkpoint_critic.pth (torch_old, 174497 bytes, 9 tensors)

fcs1.weight f4 [256, 33]
0	0xbe6379da	-0.22214451
1	0x3b0e56f7	0.0021719316
2	0xbd2d5b79	-0.042323563
3	0xbe625b76	-0.22105202
4	0x3cffa6f1	0.031207534
5	0xbde56323	-0.112005495
6	0x3da5e356	0.081000015
7	0x3d1b1d57	0.037869778
8	0x3dc4271d	0.09577773
9	0xbcaa1a81	-0.020764591
10	0xbad8bf1c	-0.0016536447
11	0xbcf7c6a2	-0.030246083
12	0xbca713e5	-0.020395229
13	0x3e967027	0.2938244
14	0xbdd62c7e	-0.10457705
15	0x3d3779bd	0.044793833
16	0x3e47c8c1	0.19510175
17	0xbd16fff7	-0.0368652
18	0x3e092f3a	0.13396922
19	0x3d7c8f44	0.061660066
20	0xbd5c590c	-0.05379586
21	0x3cbe94c5	0.023264298
22	0xbc75e9b4	-0.015009332
23	0x3dfe40f7	0.12414735
24	0xbdbe4781	-0.09290982
25	0x3d82a273	0.06378641
26	0xbe0451f8	-0.12921894
27	0x3d650087	0.055908706
28	0xbbaada15	-0.0052139857
29	0x3c0a8f90	0.0084570795
30	0xbca64177	-0.020294888
31	0xbd256168	-0.040376097
32	0x3e2b79b8	0.16745651
33	0x3d49b420	0.049244046
34	0x3ce65cb7	0.028120382
35	0x3d02dc82	0.031948574
36	0x3ecab008	0.39587426
37	0xbe928b33	-0.28621826
38	0xbeac8507	-0.33695242
39	0x3f053112	0.52028
40	0xbd86fd92	-0.065913334
41	0x3ca618bd	0.020275468
42	0xbdcba2ef	-0.099431865
43	0xbc49efc0	-0.012325227
44	0xbccd1b4e	-0.025037434
45	0xbc76b433	-0.015057611
46	0xbde2ccf4	-0.11074248
47	0x3d7c5db6	0.061612807
48	0xbd2e7f13	-0.042601656
49	0x3a59f9c2	0.000831511
50	0xbe4519e8	-0.19248164
51	0x3f0679fc	0.52529883
52	0xbe6bbb4c	-0.23020667
53	0xbcb00636	-0.021487337
54	0x3d1d8a14	0.03846176
55	0xbc360159	-0.01110872
56	0x3d1a2bda	0.037639476
57	0x3d0cc92b	0.034371536
58	0xbb5657c7	-0.0032706128
59	0x3e1ce1c8	0.15320504
60	0x3e6df34e	0.23237345
61	0xbce0c2f7	-0.027436716
62	0x3bc92ee0	0.006139621
63	0xbe6855d0	-0.22688985
64	0xbd59b03a	-0.05314658
65	0xbf4fa51f	-0.8111133
66	0x3a7cab8c	0.00096385996
67	0xbd90aa2f	-0.0706371
68	0x3e278952	0.16360977
69	0xbdbc0024	-0.09179714
70	0xbf1b0340	-0.60551834
71	0x3f59d7e9	0.8509508
72	0xbe882a6f	-0.26594874
73	0x3d25b067	0.040451434
74	0xbd188311	-0.03723437
75	0x3cacfecc	0.02111759
76	0x3c304d0f	0.01076056
77	0x3d10c024	0.03533949
78	0x3cac949c	0.021066956
79	0x3db13cc2	0.08654167
80	0x3da11993	0.07866206
81	0xbe1cbbd3	-0.15306024
82	0x3f0696f8	0.5257411
83	0xbc52f7ac	-0.012876432
84	0x3edac729	0.42730072
85	0x3e62f2ce	0.22162935
86	0x3ad8f68a	0.0016552967
87	0xbcb79113	-0.022408044
88	0xbd0611ac	-0.032731697
89	0x3cbc8f09	0.023017423
90	0xbc879d9b	-0.016554644
91	0xbd329654	-0.043600395
92	0xbd23178d	-0.03981738
93	0x3dffb59b	0.1248581
94	0x3d8ecd76	0.06972782
95	0xbcea37e0	-0.028591096
96	0xbdaeddd9	-0.08538408
97	0xbcb5a1e4	-0.022171922
98	0x3f090441	0.53522116
99	0x3cd724e7	0.026262714
100	0x3d0ec44d	0.034855176
101	0xbd891951	-0.06694282
102	0x3ebafb4a	0.36519843
103	0x3d98fb1e	0.07469772
104	0x3e2c5c81	0.16832162
105	0x3d8690eb	0.0657061
106	0xbd8b0f2f	-0.067900054
107	0xbe93ec10	-0.2889104
108	0x3db24dcf	0.08706247
109	0x3e1079aa	0.14108911
110	0xbd87218b	-0.06598195
111	0xbc85d3a1	-0.016336264
112	0xbe02a162	-0.12756875
113	0x3d6a5319	0.057208154
114	0xbd3e027a	-0.04638908
115	0xbebe9e1f	-0.37230012
116	0xbde25738	-0.11051792
117	0xbed4f66d	-0.41594258
118	0x3ef48ec6	0.47765177
119	0x3ca998b4	0.020702697
120	0xbdf8a241	-0.121403225
121	0x3d9f9575	0.077921785
122	0xbe53c347	-0.20679961
123	0xbc0d0b82	-0.008608701
124	0x3c0c0369	0.008545735
125	0x3dd2700d	0.10275278
126	0x3de43ed1	0.11144794
127	0x3e14098b	0.14456765
128	0x3ce74838	0.028232679
129	0xbe587680	-0.21138954
130	0x3d2e9a20	0.042627454
131	0x3d8d989c	0.069138736
132	0xbd2aef56	-0.041732155
133	0xbcbdc068	-0.023163036
134	0x3d8f5725	0.069990434
135	0xbe93ae95	-0.28844133
136	0xbe4246f0	-0.18972373
137	0xbd4cc547	-0.049992826
138	0x3e5cf92c	0.21579427
139	0x3ca906b7	0.020633085
140	0xbe980dff	-0.29698178
141	0xbc8e5baa	-0.017377693
142	0x3c25739e	0.010098366
143	0xbd0df6c8	-0.034659177
144	0x3dabbd46	0.083857104
145	0xbd7a47b5	-0.06110354
146	0xbdec1dfc	-0.115291566
147	0x3e326f27	0.17425214
148	0xbef180f6	-0.47168702
149	0xbc8f3ee6	-0.017486047
150	0xbf0e405c	-0.55566955
151	0xbee8f98f	-0.45502898
152	0x3af856b1	0.0018946734
153	0x3d2de784	0.04245712
154	0x3c2b5dd2	0.01045938
155	0x3dfe58b0	0.124192595
156	0xbd28c2ba	-0.04120133
157	0x3d1accff	0.037793156
158	0x3dd16640	0.10224581
159	0x3dad66e9	0.08466894
160	0xbe10b3e2	-0.1413112
161	0xba9d8780	-0.0012018532
162	0xbd1b6698	-0.037939638
163	0xbcde10d8	-0.027107641
164	0xbe8c32de	-0.2738256
165	0xbde16855	-0.11006228
166	0xbebc4ed5	-0.36778894
167	0x3e5cabf1	0.21549965
168	0x3ea6639e	0.32497877
169	0x3cd37fbe	0.025817748
170	0xbd375c5f	-0.044765826
171	0x3da0fee9	0.0786112
172	0x3e2b9724	0.16756874
173	0x3b1726a4	0.0023063803
174	0xbd8d6e0b	-0.06905755
175	0xbd9e45a9	-0.0772813
176	0x3c3ae1ad	0.011406344
177	0xbcb7a8e7	-0.022419406
178	0x3d2c946f	0.042133745
179	0x3e84b663	0.259204
180	0xbdc181c6	-0.094485804
181	0xbeb1e065	-0.34741512
182	0xbec7dc19	-0.3903511
183	0x3c16c2cf	0.009201719
184	0xbecd2483	-0.4006692
185	0xbdf76b5d	-0.12081025
186	0xbcbf5f08	-0.023360744
187	0x3d35f5fc	0.044424042
188	0x3d5a07e1	0.05323017
189	0x3cd4afbb	0.025962701
190	0x3c843aab	0.016141256
191	0xbd359143	-0.044327985
192	0xbc97df4e	-0.018539097
193	0x3af9712e	0.0019030923
194	0xbd25ffae	-0.04052704
195	0x3daec103	0.08532908
196	0x3c37d018	0.011219047
197	0x3e8537c7	0.26019117
198	0x3c7fbd00	0.015609026
199	0x3ce5bf86	0.028045427
200	0x3d9bdf36	0.076109335
201	0xbe21567e	-0.1575565
202	0xbd514a54	-0.051096275
203	0x3d5cede6	0.053937815
204	0xbee289da	-0.44245797
205	0xbb2fd9a5	-0.0026832607
206	0x3caa7b06	0.020810615
207	0xbd0d66c1	-0.034521822
208	0xbaae59a6	-0.0013301864
209	0x3ce6a91a	0.028156806
210	0xbc29422a	-0.010330716
211	0x3c62d7fc	0.01384544
212	0x3cbc632d	0.02299651
213	0xbd290649	-0.04126576
214	0xbd757392	-0.05992467
215	0x3d1bc699	0.038031194
216	0x3d212999	0.03934631
217	0xbd75bf3d	-0.059996832
218	0xbc07ec86	-0.008296138
219	0x3bbe261a	0.005802882
220	0x3c34333b	0.010998542
221	0x3be298d6	0.006915192
222	0x3c6805ff	0.014161586
223	0xbbb6fea8	-0.0055845566
224	0xbd8f0679	-0.069836564
225	0x3e8d7cb9	0.27634218
226	0x3d244d0b	0.040112536
227	0xbc9639d8	-0.018338129
228	0xbea6978f	-0.32537505
229	0x3d2e663e	0.042577974
230	0x3f9b970b	1.215547
231	0xbe0dc6d1	-0.13845374
232	0xbe1a9a40	-0.15097904
233	0x3b1bcb56	0.002377232
234	0xbeb2747e	-0.348545
235	0xbd57721b	-0.052599054
236	0x3d0c4ddd	0.034253944
237	0xbf4fff0c	-0.81248546
238	0xbd0191af	-0.031633075
239	0x3d7e303f	0.06205773
240	0xbdb825c8	-0.08991581
241	0xbd6cb6f6	-0.057791673
242	0xbc38e25a	-0.011284435
243	0x3b086201	0.0020810368
244	0x3e06f3bc	0.13178915
245	0x3dcb76d8	0.09934777
246	0xbda020d5	-0.07818762
247	0x3da1f3ab	0.07907804
248	0x3dc9e43d	0.09857986
249	0x3df56138	0.11981434
250	0xbcd8fed3	-0.026488697
251	0x3c5d15db	0.01349398
252	0xbb82b770	-0.0039891526
253	0x3c5510df	0.013004511
254	0xbd5e2498	-0.054234117
255	0x3d6fc9e7	0.05854216

fcs1.bias f4 [256]
0	0x3ddbf620	0.10740304
1	0xbeafaccb	-0.34311518
2	0xbe0de272	-0.13855913
3	0xbdd93390	-0.10605538
4	0x3d0c1616	0.03420075
5	0x3e00ecf9	0.12590398
6	0xbec47f7a	-0.38378507
7	0x3cc7de2d	0.024397934
8	0x3e94948a	0.29019576
9	0xbe9ffb0c	-0.3124622
10	0xbc858f5d	-0.016303713
11	0xbe541846	-0.20712385
12	0xbde05e89	-0.10955531
13	0xbda6f5ce	-0.08152352
14	0xbd312f18	-0.043257803
15	0xbe43889b	-0.1909508
16	0xbccd1888	-0.025036111
17	0x3c0d9dc6	0.008643573
18	0xbdb17e60	-0.08666682
19	0xbd8b8f60	-0.06814456
20	0xbe42288f	-0.18960784
21	0xbea761ae	-0.3269171
22	0xbe07e6e1	-0.13271667
23	0xbd3da031	-0.04629535
24	0xbe3632e6	-0.17792854
25	0xbe22ebf9	-0.15910329
26	0x3dc47f6e	0.09594618
27	0x3de21b7c	0.110403985
28	0xbe456805	-0.19277962
29	0x3ccf63b4	0.025316097
30	0xbec5b02d	-0.38610974
31	0x3bfe0fec	0.007753363
32	0x3c232722	0.00995806
33	0xbe4ecad3	-0.20194559
34	0xbe83e4e2	-0.2576056
35	0xbda1a3c2	-0.078925624
36	0xbe78e418	-0.24305761
37	0xbe0886eb	-0.13332717
38	0x3c95abb9	0.01827036
39	0x3e501633	0.20320968
40	0xbea8cbe8	-0.32968068
41	0xbea1e1f8	-0.31617713
42	0xbe4c5f38	-0.19958198
43	0xbe80f220	-0.25184727
44	0xbc64b963	-0.013960215
45	0xbe36f9e8	-0.17868769
46	0x3d6e1b83	0.058131706
47	0x3dddd87d	0.108323075
48	0xbe34cac3	-0.17655472
49	0x3d13ece7	0.0361146
50	0x3d62ee1e	0.055402867
51	0xbe139376	-0.1441172
52	0xbe34be04	-0.1765061
53	0xbe849a51	-0.25898984
54	0xbde01d75	-0.109431185
55	0xbdaf00a8	-0.08545047
56	0x3dbbfab4	0.09178677
57	0xbdd86762	-0.10566594
58	0xbe8d129a	-0.27553254
59	0xbb87e422	-0.0041470686
60	0xbe342106	-0.17590722
61	0xbdf254c9	-0.11832578
62	0xbe688b05	-0.22709282
63	0xbe0013b0	-0.1250751
64	0xbd186a14	-0.03721054
65	0xbd86eca4	-0.06588104
66	0xbdda5c13	-0.10662093
67	0xbd033b14	-0.032038763
68	0x3d236844	0.039894357
69	0xbe874260	-0.26417828
70	0xbe4c2af2	-0.19938257
71	0xbe920e12	-0.2852636
72	0xbe1be83d	-0.1522531
73	0x3d505c29	0.05086914
74	0x3dcf43e0	0.10120368
75	0xbdab8be6	-0.08376293
76	0xbe809201	-0.25111392
77	0xbe03b632	-0.12862471
78	0xbe44f74e	-0.19234964
79	0xbdd44bea	-0.10366042
80	0xbe863553	-0.26212558
81	0xbde06f7e	-0.109587654
82	0xbd2762f7	-0.040865865
83	0xbe509b7e	-0.20371816
84	0xbda8a542	-0.082346454
85	0xbe9783b1	-0.2959266
86	0xbe151b8e	-0.14561293
87	0xbe62ef2c	-0.2216155
88	0xbc9f9312	-0.019479308
89	0xbe5da4a2	-0.21644834
90	0xbebe1ab6	-0.37129754
91	0xbb76b1a0	-0.0037642494
92	0xbc373ddd	-0.011184183
93	0xbdd8a1e2	-0.10577752
94	0xbd8e4965	-0.06947593
95	0xbe0266b6	-0.12734494
96	0xbe98890b	-0.29792055
97	0xbed44b8e	-0.41463894
98	0xbdb5174a	-0.08842333
99	0xbe4a0ed9	-0.19732226
100	0x3e3ad28b	0.18244378
101	0x3e134a07	0.14383708
102	0xbd420480	-0.047367573
103	0xbe9e0bd6	-0.30868405
104	0xbea9499a	-0.33063966
105	0x39d0422c	0.00039722153
106	0xbd67b72d	-0.056571174
107	0xbea9bfdd	-0.33154193
108	0xbe9444f8	-0.2895887
109	0xbcee79b3	-0.029110765
110	0xbea7d775	-0.32781568
111	0x3addef73	0.0016932323
112	0xbe964fb1	-0.29357675
113	0xbdd6a3f9	-0.10480494
114	0xbcb64497	-0.022249503
115	0xbeaec4d8	-0.34134555
116	0xbe850e5f	-0.25987527
117	0x3d844c2f	0.06459843
118	0xbe278093	-0.16357641
119	0xbe0b96df	-0.13631772
120	0xbe872e1e	-0.26402372
121	0xbea4ec6e	-0.32211632
122	0xbe10d21c	-0.1414265
123	0xbe4c61d0	-0.19959188
124	0xbe0813a2	-0.1328874
125	0xbe852587	-0.26005194
126	0xbe9ea3c6	-0.30984324
127	0xbdbbfc01	-0.09178925
128	0x3c64cca4	0.013964806
129	0xbdfe6d90	-0.12423241
130	0xbd20cc18	-0.03925714
131	0x3e09d875	0.13461478
132	0x3d0a48c8	0.033760816
133	0xbd60fec5	-0.054930467
134	0xbdbf2f91	-0.093352444
135	0xbda8d215	-0.08243195
136	0xbe40e50d	-0.18837376
137	0xbe01ec14	-0.12687713
138	0xbe8c0c1e	-0.27352995
139	0xbece05f0	-0.40238905
140	0xbe2b4f30	-0.16729426
141	0xbe4cd225	-0.20002039
142	0xbe351710	-0.17684579
143	0xbe9282a3	-0.28615293
144	0x3de85313	0.1134397
145	0xbda4f803	-0.08055117
146	0xbe6506db	-0.22365896
147	0xbe1ce96d	-0.1532342
148	0xbe5db50e	-0.21651098
149	0xbeaf9124	-0.3429042
150	0xbea2e6b9	-0.31816652
151	0x3ce50254	0.027955212
152	0xbe9680d3	-0.2939516
153	0x3e4c5b2f	0.19956659
154	0x3cd5bba1	0.026090445
155	0xbc8a5ec0	-0.016890883
156	0xbe8cfcbd	-0.27536574
157	0xbe91cd06	-0.28476733
158	0xbe7d298f	-0.24722885
159	0xbdad3b16	-0.084585354
160	0xbe15063d	-0.14553161
161	0x3e594af3	0.21219997
162	0xbdbe8b6e	-0.09303938
163	0xbe6a66d0	-0.22890782
164	0xbeb33cd1	-0.35007337
165	0x3de6be9e	0.11266826
166	0xbe30bde3	-0.17259936
167	0xbe2ccb11	-0.16874339
168	0xbea0c9ab	-0.3140386
169	0xbeac734f	-0.33681723
170	0xbe2784b3	-0.16359214
171	0x3d77e52c	0.06052129
172	0x3dc5b835	0.09654275
173	0xbe865036	-0.2623307
174	0xbe6d39b0	-0.23166537
175	0xbd94294c	-0.07234439
176	0xbead56b8	-0.33855224
177	0x3d46619a	0.048432924
178	0x3d6d6528	0.0579578
179	0xbe366952	-0.17813614
180	0xbe39f4d1	-0.18159796
181	0x3b961310	0.004579909
182	0x3e422762	0.18960336
183	0xbdc7f24c	-0.09763011
184	0xbe8d8d79	-0.27646998
185	0xbdabc56b	-0.08387264
186	0xbded220c	-0.115787596
187	0xbd0e53f8	-0.034748048
188	0xbe8512be	-0.25990862
189	0xbe11ae30	-0.14226604
190	0xbdbbf5af	-0.0917772
191	0x3d9075ce	0.070537195
192	0xbe4bd3ad	-0.19904967
193	0xbd8c5814	-0.06852737
194	0xbe25614a	-0.16150394
195	0xbe767c84	-0.24070936
196	0x3cd69058	0.026191875
197	0xbdbf5908	-0.09343153
198	0xbda28915	-0.079363026
199	0xbe8d133d	-0.2755374
200	0xbdfd0f31	-0.12356413
201	0xbe86ecea	-0.26352626
202	0x3ce63e2f	0.028105823
203	0xbbd97622	-0.006636397
204	0xbe1a5f8b	-0.15075509
205	0xbe0e075e	-0.13869998
206	0xbea0e141	-0.31421855
207	0x3e8de44e	0.27713245
208	0x3d8fc33a	0.070196584
209	0xbe774d57	-0.24150597
210	0xbe95ee8c	-0.2928356
211	0xbcda32e6	-0.026635598
212	0x3de315ab	0.11088117
213	0x3cb6143a	0.022226442
214	0x3d12db59	0.035853717
215	0xbe9c6475	-0.30545393
216	0xbde83268	-0.11337739
217	0xbe924170	-0.2856555
218	0xbc1eef7d	-0.009700653
219	0xbe69980c	-0.22811908
220	0xbe39760a	-0.18111435
221	0xbefe7db5	-0.49705282
222	0xbdc826f9	-0.097730584
223	0xbd6e8dfd	-0.05824088
224	0xbc5e5025	-0.013568913
225	0xbd97bd6b	-0.074091755
226	0xbc54f2be	-0.012997327
227	0x3e2269e3	0.15860705
228	0xbe409c7c	-0.18809694
229	0xbe1052c0	-0.14094067
230	0xbd8e8bbe	-0.069602475
231	0x3dfdc7a0	0.12391591
232	0xbecb86b5	-0.3975121
233	0xbe33751f	-0.17525147
234	0xbe244209	-0.16040815
235	0xbd41a823	-0.04727949
236	0xbda3be20	-0.07995248
237	0xbc52f3dc	-0.012875523
238	0xbd5cf115	-0.05394085
239	0xbe1dda44	-0.15415293
240	0xbea8f76a	-0.33001262
241	0xbdad6cb6	-0.084680006
242	0xbd99bee9	-0.07507116
243	0xbe4b8dc5	-0.198783
244	0xbebbf87c	-0.36713016
245	0xbc36cd2a	-0.011157313
246	0xbe4be436	-0.19911274
247	0x3e718237	0.2358483
248	0xbe77294e	-0.2413685
249	0xbd421352	-0.047381707
250	0xbdea03a1	-0.114264734
251	0xbdccce73	-0.100003146
252	0xbea49c5e	-0.3215055
253	0x3db84d18	0.089990795
254	0xbda55dcc	-0.08074531
255	0xbd74c814	-0.059761122

fc2.weight f4 [128, 260]
0	0xbe8b205f	-0.27173135
1	0x3e20984c	0.15683097
2	0x3bfc23c8	0.007694695
3	0xbec1a036	-0.37817544
4	0x3daf4f5c	0.085600585
5	0xbc5e3a87	-0.013563759
6	0x3e5347eb	0.20632903
7	0x3e029356	0.12751517
8	0xbea23560	-0.31681347
9	0xbc5b98b4	-0.0134031065
10	0x3c3c46ab	0.011491458
11	0xbe9e5a2f	-0.3092818
12	0x3e37b0d2	0.17938545
13	0xbcf14ed9	-0.029456543
14	0x3d399527	0.04530826
15	0xbd26b395	-0.040698607
16	0x3dc9c39b	0.09851762
17	0x3cf7f885	0.03026987
18	0xbcc641f4	-0.02420137
19	0xbe534209	-0.20630659
20	0xb9669707	-0.00021990771
21	0x3e1b898c	0.15189189
22	0xbe0327ea	-0.12808195
23	0xbd47b9c0	-0.04876113
24	0xbd0a956d	-0.03383391
25	0xbe99b181	-0.30018237
26	0x3d871e6d	0.065976
27	0x3ddf40af	0.10901009
28	0xbd941972	-0.07231416
29	0xbb91a9a0	-0.0044452697
30	0x3d13b61a	0.036062337
31	0xbcb53525	-0.022120068
32	0x3d324b01	0.04352856
33	0xbe3fa3ee	-0.18714878
34	0xbe05aa2a	-0.13053194
35	0xbd65952d	-0.05605047
36	0x3e1bf7a9	0.15231194
37	0x3cdbaf81	0.026817085
38	0xbc4563cc	-0.012047719
39	0x3d69e09f	0.05709898
40	0x3cc6d45e	0.024271186
41	0xbe23e5d9	-0.16005649
42	0xbdfdc548	-0.12391144
43	0xbe8e326b	-0.2777284
44	0xbcf20de5	-0.029547641
45	0x3e4c26e1	0.19936706
46	0x3cec1373	0.028817868
47	0x3b0ee8a4	0.0021806145
48	0x3d6170ee	0.05503934
49	0x3c11f86b	0.008909325
50	0x3d160c2f	0.036632713
51	0x3e964218	0.293473
52	0xbd3929a7	-0.04520574
53	0xbec7891c	-0.38971794
54	0x3ded8f47	0.115995936
55	0xbd9f0b1d	-0.077657916
56	0xbe62b22e	-0.22138283
57	0xbdb3d557	-0.08780926
58	0xbd92f772	-0.07176103
59	0x3ddf8c34	0.109154135
60	0xbec1b9b2	-0.37836987
61	0x3ca2fbd5	0.019895473
62	0x3e5d898e	0.21634504
63	0x3e65c8d4	0.22439891
64	0xbd1d2dde	-0.03837382
65	0xbdb08fcf	-0.08621179
66	0xbdfc8265	-0.12329558
67	0xbdd691ab	-0.10477003
68	0xbe3a80ad	-0.18213148
69	0x3e200d38	0.15630043
70	0x3d87ffe6	0.06640606
71	0x3d8d5aba	0.0690207
72	0x3e4cf044	0.20013529
73	0xbd045b4e	-0.032313637
74	0x3dbc4d0c	0.09194383
75	0x3dfa9893	0.122361325
76	0xbda5db44	-0.08098462
77	0x3dc99e56	0.09844653
78	0x3e776610	0.24160028
79	0xbe809bec	-0.2511896
80	0x3dd9dc81	0.10637761
81	0xbddd6277	-0.10809796
82	0xbe0acd0d	-0.13554783
83	0xbea7bbef	-0.3276057
84	0x3dc9a2be	0.09845494
85	0xbc18b671	-0.009320841
86	0x3c902a24	0.01759822
87	0x3d94db01	0.07268334
88	0x3c997415	0.01873211
89	0x3d55ffd5	0.052245934
90	0x3c79b590	0.015241042
91	0xbe91859c	-0.28422248
92	0x3e24758e	0.16060469
93	0xbe42d45e	-0.19026324
94	0xbeb8eeba	-0.36119634
95	0x3d259b28	0.04043117
96	0x3eb57813	0.35443172
97	0x3d4efe42	0.050535448
98	0xbe6f77a4	-0.23385483
99	0x3dc9040f	0.09815227
100	0xbe9618c9	-0.29315785
101	0x3c94291c	0.018086009
102	0x3e204e8b	0.15654962
103	0x3c83a503	0.016069895
104	0x3e396837	0.18106161
105	0xbd753e80	-0.059874058
106	0xbe7d9b02	-0.24766162
107	0x3d4fa24e	0.050691895
108	0xbe8df7be	-0.27728075
109	0xbd0c6dc8	-0.034284383
110	0xbe465c2d	-0.193711
111	0xbe930509	-0.2871478
112	0xbe6ecfb9	-0.23321427
113	0xbdec62ee	-0.11542307
114	0xbc4c261e	-0.01246026
115	0xbd97002d	-0.073730804
116	0xbd929af5	-0.07158462
117	0x3cd7a50a	0.026323814
118	0x3e26637a	0.16248885
119	0x3dbc0f1b	0.09182569
120	0x3dabd8af	0.083909385
121	0xbe59f4e8	-0.2128483
122	0x3df763ce	0.12079583
123	0xbd90dcca	-0.07073362
124	0xbe95192e	-0.29120773
125	0x3d3acdd9	0.045606468
126	0x3df8d9bf	0.12150907
127	0x3dcbd0b2	0.09951915
128	0x3c35c74e	0.011094881
129	0x3da4ceea	0.08047278
130	0xbbdf858d	-0.0068213404
131	0x3e2cb4d0	0.1686585
132	0x3d8af748	0.067854464
133	0xbd2871fb	-0.041124325
134	0x3e2de85e	0.16983172
135	0x3d000404	0.03125383
136	0x3dd5d5d3	0.10441174
137	0xbe0ba1be	-0.13635918
138	0x3b006e1e	0.0019596885
139	0x3db073af	0.08615815
140	0xbe4cd7a7	-0.2000414
141	0x3d019373	0.03163476
142	0xbe6302fe	-0.2216911
143	0x3d92b3a8	0.07163173
144	0xbd07951f	-0.033101197
145	0x3c5f73f1	0.013638482
146	0x3dae9b94	0.08525768
147	0xbdfc45eb	-0.12318023
148	0x3d5982f0	0.053103387
149	0xbd542be6	-0.051799677
150	0xbe804970	-0.25056028
151	0x3c4fbacd	0.012678814
152	0xbd914d7d	-0.07094858
153	0x3a7aab06	0.00095622276
154	0xbe10f17e	-0.14154622
155	0x3e432c26	0.1905981
156	0x3c743782	0.014905812
157	0x3d034fe9	0.03205863
158	0xbcca8c98	-0.024725243
159	0x3df1d92c	0.118090004
160	0xbe02a969	-0.12759937
161	0xbe164705	-0.1467553
162	0xbe121316	-0.14265093
163	0x3e3fd039	0.18731774
164	0xbe480830	-0.19534373
165	0x3dc773f2	0.09738912
166	0xbe242046	-0.16027936
167	0x3e2afbef	0.16697668
168	0xbd83aabe	-0.06429051
169	0xbd625be3	-0.05526341
170	0x3cf3827a	0.029725302
171	0xbdea9d15	-0.11455742
172	0x3e941b3a	0.28927022
173	0x3dfdec54	0.12398592
174	0xbef5caff	-0.48006436
175	0xbd26eb2a	-0.040751614
176	0x3dc67952	0.09691109
177	0x3db8a314	0.0901548
178	0xbc24e076	-0.010063281
179	0x3c5e97cd	0.013585997
180	0xbe600285	-0.21875961
181	0x3ddfcd6d	0.10927854
182	0xbd8882ec	-0.06665596
183	0x3d9683d9	0.07349367
184	0xbe28764c	-0.16451377
185	0xbe4a975e	-0.19784304
186	0x3e01add4	0.12663966
187	0xbe7ba9b6	-0.24576458
188	0x3db33402	0.08750154
189	0x3dba3aac	0.09093222
190	0xbea69589	-0.3253596
191	0xbe93d685	-0.28874603
192	0x3dc2aa57	0.09505146
193	0xbb8be78f	-0.0042695473
194	0x3d5cd7ae	0.053916626
195	0xbd27ecba	-0.040997244
196	0xbe08c03f	-0.13354586
197	0xbe36473a	-0.17800608
198	0xbdeea0d3	-0.116517685
199	0xbc1a842b	-0.009430925
200	0xbd776889	-0.060402427
201	0x3cdb7606	0.026789676
202	0x3e28f849	0.16500963
203	0x3db59520	0.08866334
204	0x3d08d00d	0.033401538
205	0x3c6527a4	0.013986502
206	0x3dec038a	0.115241125
207	0x3d47faa4	0.048823014
208	0x3e838156	0.25684613
209	0xbd81c4d0	-0.06336367
210	0xbe3d2ab6	-0.18473324
211	0xbe3f166f	-0.18660901
212	0x3cbb4b9f	0.022863207
213	0x3db62f19	0.08895702
214	0xbc7824d4	-0.015145499
215	0x3d934bf1	0.07192219
216	0x3e00c7e7	0.12576257
217	0x3d2e3ffc	0.04254149
218	0xbe249887	-0.1607381
219	0xbedb96c0	-0.4288845
220	0x3d247c7d	0.040157784
221	0xbd898f87	-0.06716829
222	0xbe295116	-0.16534838
223	0xbe11ebb3	-0.14250068
224	0xbe29b5ca	-0.16573253
225	0x3d2a8ef9	0.041640256
226	0x3de076e3	0.10960176
227	0x3e1cd80f	0.15316795
228	0x3e5c82ef	0.21534322
229	0xbe98dadf	-0.29854485
230	0xbddfbc67	-0.10924607
231	0xbd46d800	-0.048545837
232	0xbe070e92	-0.13189152
233	0xbe0e9622	-0.13924459
234	0x3d86f86c	0.065903515
235	0xbde484ba	-0.11158128
236	0x3dc3754a	0.095438555
237	0xbd71e257	-0.059053745
238	0xbe7312cc	-0.23737639
239	0xbe219150	-0.15778089
240	0x3dc798a9	0.097459145
241	0x3e43aac2	0.19108108
242	0x3c800f57	0.015632315
243	0x3d053934	0.032525256
244	0x3db88093	0.090088986
245	0x3dec2992	0.115313664
246	0xbba5d43e	-0.0050607016
247	0xbeac90ab	-0.33704123
248	0xbea97631	-0.33097985
249	0x3e03da54	0.12876254
250	0x3d2124e1	0.03934181
251	0xbd3551e3	-0.044267546
252	0x3d471340	0.048602343
253	0x3e3a7f59	0.18212642
254	0x3e19f457	0.15034615
255	0x3d4bc12c	0.04974477

fc2.bias f4 [128]
0	0xbe6a5305	-0.22883232
1	0x3eafd921	0.34345344
2	0xbed6976f	-0.4191241
3	0xbe0d1b0d	-0.1377985
4	0xbead679f	-0.3386812
5	0xbda9911f	-0.08279633
6	0xbe77a313	-0.24183302
7	0xbe94175a	-0.28924066
8	0x3ea42c1a	0.32064897
9	0x3e17464a	0.14772907
10	0x3e2739df	0.1633067
11	0xbe416967	-0.18887864
12	0xbeace9ad	-0.3377203
13	0xbe985941	-0.29755595
14	0x3e49583a	0.19662562
15	0xbe9cc5af	-0.3061957
16	0xbeaa0757	-0.33208725
17	0x3e753ac7	0.23948203
18	0x3ec83500	0.39102936
19	0xbe232257	-0.15931068
20	0xbe8d20f5	-0.27564207
21	0x3e0c6537	0.13710485
22	0xbe9e0298	-0.30861354
23	0x3f00b5c0	0.5027733
24	0xbeb0f84f	-0.34564444
25	0x3e336c55	0.17521794
26	0xbe70ab9e	-0.23502967
27	0xbeb5c8ce	-0.35504764
28	0x3e778113	0.24170332
29	0xbe7c9ab8	-0.24668396
30	0x3e456063	0.1927505
31	0xbe97dd2a	-0.29660922
32	0xbe86c6fa	-0.26323682
33	0xbdb62361	-0.08893467
34	0x3e69a383	0.22816281
35	0x3ed4ce8c	0.41563833
36	0xbe7b2fc4	-0.2452994
37	0xbe858d62	-0.2608443
38	0xbeaf8d58	-0.34287524
39	0xbe448be0	-0.19193983
40	0xbe7b3836	-0.24533162
41	0x3f062c76	0.5241159
42	0xbec0b8dc	-0.37641037
43	0x3e581a82	0.21103862
44	0x3f06ff1e	0.5273303
45	0xbd83097a	-0.06398292
46	0x3e968cfe	0.29404444
47	0x3d8a62e6	0.06757145
48	0xbe16a514	-0.1471141
49	0xbec1f7b6	-0.378843
50	0x3ee54014	0.4477545
51	0xbe5b13e8	-0.21394312
52	0xbcd8554e	-0.026407864
53	0xbe9b83f8	-0.30374122
54	0xbe9ebbd0	-0.31002665
55	0xbe7b166c	-0.24520272
56	0x3d6aebdb	0.057353836
57	0xbee332d0	-0.44374704
58	0x3e969bc4	0.29415715
59	0xbe73550c	-0.23762912
60	0x3e375e73	0.17907123
61	0xbd64054a	-0.055669107
62	0xbe837d5a	-0.25681573
63	0xbea962a6	-0.33083075
64	0x3df9eb72	0.12203111
65	0xbe915c68	-0.28390813
66	0xbe52f2ee	-0.20600483
67	0xbe95f766	-0.29290313
68	0xbea0f50c	-0.31436956
69	0x3d7647eb	0.06012718
70	0x3e4f7d8d	0.20262738
71	0xbe40eb11	-0.1883967
72	0xbe9d3cc3	-0.3071042
73	0x3e2e5877	0.17025934
74	0xbcc4b51c	-0.02401214
75	0x3e9ad8c9	0.3024352
76	0xbe5ea352	-0.2174199
77	0x3dc702db	0.097173415
78	0xbe582fd2	-0.21111992
79	0x3e7f51a6	0.2493349
80	0x3e39be74	0.18139058
81	0xbe05af25	-0.13055094
82	0xbe931baf	-0.28732058
83	0x3e899210	0.2686925
84	0x3dbe8d85	0.093043365
85	0xbe757526	-0.2397047
86	0xbe994e46	-0.2994253
87	0x3ecc2b45	0.39876762
88	0xbecc0ae5	-0.39852062
89	0x3c13ee25	0.009028946
90	0x3e76036c	0.24024743
91	0xbec54d5a	-0.38535577
92	0xbec4a19f	-0.38404557
93	0xbe36716d	-0.17816706
94	0xbea779fa	-0.32710248
95	0xbe963760	-0.29339123
96	0xbd085915	-0.03328808
97	0x3eb09db0	0.34495306
98	0x3db77c71	0.08959282
99	0x3c4d41c7	0.01252789
100	0x3ea29663	0.3175536
101	0x3e61df5e	0.22057864
102	0xbe3c13ee	-0.18366978
103	0xbdc29c8f	-0.095025174
104	0x3e48497a	0.19559279
105	0xbe9bbc89	-0.30417278
106	0x3a740439	0.00093084906
107	0xbe9fa860	-0.31183147
108	0x3e5e3f9c	0.21703953
109	0x3eb91ac4	0.36153233
110	0x3dd90876	0.10597317
111	0xbe851a26	-0.25996512
112	0xbe5c6da7	-0.21526204
113	0xbe78952b	-0.24275653
114	0x3e56ded2	0.20983437
115	0xbe821389	-0.2540553
116	0xbe7be127	-0.24597608
117	0xbec68838	-0.38775802
118	0xbe88bb69	-0.26705483
119	0xbe5c44ca	-0.21510616
120	0xbe8a4d7a	-0.27012235
121	0xbe9de2d2	-0.30837113
122	0x3e44c476	0.19215569
123	0xbe5ba127	-0.21448193
124	0xbea77cd2	-0.32712418
125	0xbe617dd1	-0.22020651
126	0x3cdfb6ee	0.027308907
127	0x3ec5cd3d	0.38633147

fc3.weight f4 [1, 128]
0	0xbdcc628b	-0.09979733
1	0x3de799b4	0.113086134
2	0xbe0530c5	-0.13006885
3	0x3e086c32	0.13322523
4	0xbe0703e1	-0.13185073
5	0x3e343e6a	0.17601934
6	0xbdd0484b	-0.10170039
7	0xbdbe7142	-0.09298946
8	0x3d8d4721	0.068983324
9	0x3d7e9741	0.062155966
10	0x3d7573e3	0.05992497
11	0xbd4b4367	-0.049624827
12	0xbdf63b5e	-0.12023042
13	0xbdfdca70	-0.123921275
14	0x3d9c6e88	0.0763827
15	0xbe3dfbb1	-0.18553044
16	0xbdd1e6a3	-0.102490686
17	0x3d8ee08c	0.06976423
18	0x3da72c39	0.08162732
19	0x3dee68e4	0.116411
20	0xbe12568d	-0.14290829
21	0x3e0ac181	0.13550378
22	0xbe22aaba	-0.1588544
23	0x3dc1d8ea	0.09465201
24	0xbeaab70c	-0.3334278
25	0x3db960fd	0.09051702
26	0xbe0587df	-0.13040112
27	0xbda45ae5	-0.08025149
28	0x3d9be9e0	0.076129675
29	0xbdecf9a9	-0.115710564
30	0x3d3456ea	0.0440282
31	0xbd3a8d3c	-0.045544848
32	0xbd4c37f3	-0.049858045
33	0x3dcf64fb	0.10126682
34	0x3da1ff9a	0.0791008
35	0x3de40c89	0.111352034
36	0xbe619ecb	-0.22033231
37	0xbdba7463	-0.0910423
38	0xbe88aa97	-0.2669265
39	0xbdb40ba8	-0.08791286
40	0xbe05a53f	-0.13051318
41	0x3e2a3c71	0.16624619
42	0xbd5a4c0f	-0.05329519
43	0x3dba57d6	0.090987846
44	0x3e1d059b	0.1533417
45	0x3e2b1b2b	0.16709583
46	0x3d839985	0.06425766
47	0x3db4da58	0.08830708
48	0xbd94a173	-0.072573565
49	0xbe920bf7	-0.28524753
50	0x3dbff9a2	0.093737856
51	0x3e48c536	0.1960648
52	0x3e19e426	0.15028438
53	0xbe4cde42	-0.2000666
54	0xbe35e879	-0.17764463
55	0xbe9b7d6d	-0.3036913
56	0x3d861f9d	0.065489985
57	0xbdfc1143	-0.1230798
58	0x3da967f7	0.08271783
59	0xbd105980	-0.035241604
60	0x3db6307e	0.08895968
61	0x3e2c090c	0.16800326
62	0xbe388d92	-0.18022755
63	0xbda9e52a	-0.08295663
64	0x3da727df	0.08161902
65	0xbdf77534	-0.120829016
66	0xbda7a285	-0.08185295
67	0xbdabfc5d	-0.08397744
68	0xbe53b040	-0.20672703
69	0x3dcae925	0.0990775
70	0x3d97d580	0.07413769
71	0xbdf9e36e	-0.12201582
72	0xbddeaf87	-0.10873323
73	0x3d9f7ab1	0.077870734
74	0x3d70ae69	0.05876008
75	0x3d8dbd6c	0.06920895
76	0xbde6e36e	-0.112738475
77	0x3dd4dabb	0.10393282
78	0xbda977ff	-0.082748406
79	0x3da3445a	0.079720214
80	0x3da29f67	0.0794056
81	0x3dcbc687	0.099499755
82	0xbdbd4542	-0.092417255
83	0x3dd24ffa	0.102691606
84	0x3dd7073f	0.10499429
85	0xbed3fb00	-0.41402435
86	0xbe88f2f2	-0.26747853
87	0x3d92a6dc	0.07160732
88	0xbd589ffe	-0.052886955
89	0x3e0e54cb	0.13899533
90	0x3d853947	0.065050654
91	0xbea59826	-0.32342643
92	0xbdc9545e	-0.09830545
93	0xbd822857	-0.063553505
94	0xbdd51817	-0.104049854
95	0xbdbf8ec2	-0.09353401
96	0x3d9aaf44	0.075529605
97	0x3ddf9e62	0.10918881
98	0x3d879393	0.066199444
99	0x3dc436ae	0.09580742
100	0x3d95f761	0.073225744
101	0x3d8936e9	0.066999264
102	0xbda9f49f	-0.08298611
103	0x3dd5fb93	0.104483746
104	0x3da3f3d2	0.080054894
105	0xbd8d732f	-0.06906735
106	0x3da2727a	0.07931991
107	0xbd9ab942	-0.075548664
108	0x3d7d04ae	0.06177204
109	0x3dd59c5d	0.104302146
110	0x3d8dd554	0.06925455
111	0xbe53c499	-0.20680465
112	0xbe22a87e	-0.15884587
113	0xbe00e65d	-0.12587877
114	0x3db6b162	0.08920552
115	0xbdba64e3	-0.09101274
116	0xbe1465fa	-0.14492026
117	0xbe617d48	-0.22020447
118	0xbe165225	-0.14679773
119	0xbdfa831f	-0.122320406
120	0x3e284e1e	0.1643605
121	0xbdc226b9	-0.09480042
122	0x3d9af20a	0.075656965
123	0xbe49ba31	-0.19699933
124	0xbe61ef89	-0.22064032
125	0xbdc4bd54	-0.09606424
126	0x3d658645	0.056036253
127	0x3db4eec1	0.08834601

bn1.weight f4 [256]
0	0x3eb224f9	0.34793833
1	0x3f15c794	0.5850766
2	0x3eb39981	0.35078052
3	0x3e86bb5a	0.26314813
4	0x3df75072	0.120758906
5	0x3ed51c2c	0.41623056
6	0x3ea519a6	0.3224613
7	0x3ed5d88c	0.41766775
8	0x3f05b997	0.5223631
9	0x3ee52ba7	0.44759867
10	0x3e404c67	0.18779145
11	0x3f515025	0.81762916
12	0x3ebb6ed5	0.36607996
13	0x3e8c18fb	0.2736281
14	0x3f38dcda	0.7221199
15	0x3e684fc7	0.22686683
16	0x3f1abc48	0.60443544
17	0x3f02c5a6	0.5108284
18	0x3f14f5f9	0.58187824
19	0x3eb32be4	0.34994423
20	0x3ebe8459	0.37210348
21	0x3f0965c3	0.536709
22	0x3ef9879f	0.48736283
23	0x3eeb2324	0.45925248
24	0x3eabe365	0.33571926
25	0x3eb03c54	0.34421027
26	0x3f16418e	0.5869378
27	0x3f18e37e	0.59722126
28	0x3ee7780f	0.45208785
29	0x3ebc6742	0.3679753
30	0x3ecb1e6e	0.39671654
31	0x3ecdc719	0.40190962
32	0x3f7e8ad6	0.99430597
33	0x3eef2046	0.4670431
34	0xbc291188	-0.010319121
35	0x3e6ca3c9	0.23109354
36	0x3ecb3b5a	0.3969372
37	0x3f4e0645	0.80478317
38	0x3ee4ae8b	0.44664416
39	0x3ee1c5b5	0.4409615
40	0x3ea09dbb	0.3137034
41	0x3ea68b40	0.32528114
42	0x3f945107	1.1587228
43	0x3eb8389b	0.35980687
44	0x3ee4f857	0.44720718
45	0x3f09472b	0.5362422
46	0x3ea30785	0.31841674
47	0x3ea50252	0.32228333
48	0x3ecd0a61	0.4004698
49	0x3f54c74e	0.83116615
50	0x3f5465b8	0.8296771
51	0x3e9b239f	0.30300614
52	0x3e74b1b4	0.23895913
53	0x3eef52d4	0.4674288
54	0x3e930b82	0.28719717
55	0x3f102048	0.5629926
56	0x3f1fdd89	0.6244741
57	0x3ea9fd2a	0.3320096
58	0x3f16dd4b	0.58931416
59	0x3e9d0475	0.30667463
60	0x3ecf4590	0.4048276
61	0x3ee0853a	0.43851644
62	0x3eae4d74	0.34043467
63	0x3ee35638	0.44401717
64	0x3f2c679d	0.673456
65	0x3e9af6bf	0.30266377
66	0x3e8eb816	0.2787482
67	0x3ea4c9c4	0.32185185
68	0x3eacabba	0.33724767
69	0x3ebcbdd5	0.3686358
70	0x3eff846e	0.49905723
71	0x3eabc6a2	0.33549982
72	0x3ea8b6a0	0.32951832
73	0x3f1c9564	0.6116545
74	0x3eaa69be	0.332838
75	0x3f29fec6	0.6640438
76	0x3ef94cc8	0.48691392
77	0x3f03097f	0.51186365
78	0x3e4a0e2c	0.19731969
79	0x3e814a74	0.25252116
80	0x3f3da395	0.7407773
81	0x3ed2fca1	0.41208366
82	0x3eff0297	0.49806663
83	0x3e5ebcdc	0.21751732
84	0x3f03af17	0.5143904
85	0x3f218f1e	0.63109004
86	0x3ed2d00d	0.41174355
87	0x3f1c287b	0.6099927
88	0x3eb3bb5e	0.35103887
89	0x3ebc1058	0.3673122
90	0x3ed31761	0.41228774
91	0x3efc7e6a	0.49315196
92	0x3f011b87	0.5043263
93	0x3f179be3	0.5922224
94	0x3ea1ad17	0.3157737
95	0x3eb4ff49	0.35351017
96	0x3e8ed4eb	0.2789682
97	0x3f4a29a7	0.78969806
98	0x3ec1ff2c	0.37889993
99	0x3ea45f33	0.3210388
100	0x3ef8fcc9	0.4863036
101	0x3ea2414b	0.3169044
102	0x3ed6ca74	0.41951334
103	0x3e8c3c76	0.27389878
104	0x3e9e6e05	0.30943313
105	0x3eeffb8f	0.4687161
106	0x3ebb5487	0.36587927
107	0x3eeb2e31	0.4593368
108	0x3e15bd3f	0.14622973
109	0x3eb64f62	0.3560744
110	0x3f51b4bd	0.8191641
111	0x3f20f134	0.62868047
112	0x3db54987	0.08851915
113	0x3f2c7659	0.67368084
114	0x3ef723e8	0.48269582
115	0x3e92c5a6	0.2866642
116	0x3f94eaf9	1.1634208
117	0x3eac7429	0.33682373
118	0x3f139a0d	0.5765694
119	0x3f177f3c	0.5917852
120	0x3f2b65ee	0.6695241
121	0x3f7d38bc	0.98914695
122	0x3ec429df	0.38313195
123	0x3ea01ff8	0.3127439
124	0x3efcb0fb	0.49353775
125	0x3eef47e4	0.46734536
126	0x3e9033db	0.28164563
127	0x3f36a3f2	0.7134391
128	0x3f004acc	0.5011413
129	0x3f0146ec	0.50498843
130	0x3f01ae93	0.50657004
131	0x3f0f9ed9	0.5610176
132	0x3e6872b3	0.22700004
133	0x3eacf8a3	0.33783445
134	0x3fa2fb44	1.273293
135	0x3f052c4f	0.52020735
136	0x3f329ffe	0.6977538
137	0x3ef14a78	0.47127128
138	0x3ea4887f	0.32135388
139	0x3e7bb996	0.24582514
140	0x3eda2c38	0.4261186
141	0x3ebe5938	0.37177444
142	0x3ebcdea5	0.36888614
143	0x3eb3dd35	0.35129705
144	0x3edb934d	0.4288582
145	0x3dd92d31	0.10604323
146	0x3ede02e9	0.43361595
147	0x3eeb693e	0.4597873
148	0x3f0ca912	0.5494548
149	0x3e81aea1	0.25328544
150	0x3eec3996	0.46137685
151	0x3efe8d6f	0.4971728
152	0x3f104cd7	0.5636725
153	0x3f13a706	0.5767673
154	0x3edd841f	0.43264863
155	0x3ef8c101	0.4858475
156	0x3ea70bb3	0.32626113
157	0x3e9ec649	0.31010655
158	0x3f0a87d9	0.5411354
159	0x3ef4ca94	0.47810805
160	0x3f773b9c	0.9657533
161	0x3f3c4054	0.73535657
162	0x3e5abab9	0.21360292
163	0x3ea37cbb	0.319311
164	0x3ef1e03b	0.47241387
165	0x3e14bc7c	0.14525026
166	0x3edc6cc3	0.4305173
167	0x3e9eb7d0	0.30999613
168	0x3e8b2ed7	0.27184173
169	0x3f307310	0.6892557
170	0x3eef91cc	0.46790922
171	0x3ee16a08	0.44026208
172	0x3ebe1231	0.37123254
173	0x3f5bf77e	0.8592452
174	0x3ed07c14	0.40719664
175	0x3eccfeb5	0.40038076
176	0x3ee7187e	0.45135874
177	0x3f0b55a0	0.5442753
178	0x3edb2112	0.42798668
179	0x3ee9ac8c	0.45639455
180	0x3e907704	0.28215802
181	0x3e8de358	0.27712512
182	0x3f2339a4	0.6375983
183	0x3f45dd3e	0.77290714
184	0x3eb9ce7c	0.36290348
185	0x3ebc14d3	0.36734638
186	0x3f459964	0.7718718
187	0x3f20450f	0.62605375
188	0x3edd9443	0.43277177
189	0x3ed6c223	0.4194499
190	0x3eaf1a2f	0.34199664
191	0x3f1b2936	0.6060976
192	0x3f24ef4b	0.6442763
193	0x3e8b2ab3	0.27181014
194	0x3f27f5c1	0.65609366
195	0x3f1fadc2	0.6237451
196	0x3ec4956d	0.38395253
197	0x3f139d39	0.5766178
198	0x3f06f1e0	0.5271282
199	0x3e9e285f	0.30890176
200	0x3e961b97	0.29317924
201	0x3ec2ba98	0.38032985
202	0x3f0657cb	0.5247771
203	0x3ee5537b	0.44790253
204	0x3f0de72c	0.55430865
205	0x3f3a46ed	0.72764474
206	0x3eb39448	0.35074067
207	0x3ea0a99c	0.31379402
208	0x3ec8a8cb	0.3919128
209	0x3eb26869	0.34845284
210	0x3e821721	0.2540827
211	0x3f064fac	0.5246532
212	0x3ec34ba8	0.3814366
213	0x3e7f8604	0.24953467
214	0x3ec83232	0.39100796
215	0x3e96ea51	0.29475644
216	0x3ed6dda7	0.41965982
217	0x3f56dfe6	0.8393539
218	0x3ec987a5	0.393613
219	0x3f1f8007	0.6230473
220	0x3e2cca9c	0.16874164
221	0x3f02bd2d	0.5106991
222	0x3ed3fcb1	0.41403726
223	0x3ec8bed4	0.3920809
224	0x3f1612ce	0.58622444
225	0x3ed2b469	0.41153267
226	0x3ea7dd3c	0.32785976
227	0x3ecffc12	0.40622002
228	0x3e9059a7	0.281934
229	0x3ea4ab88	0.32162118
230	0x3f298faf	0.6623487
231	0x3ec88271	0.3916202
232	0xbf101ace	-0.562909
233	0x3ee2c229	0.44288757
234	0x3f51a754	0.8189595
235	0x3f5f6bc5	0.8727382
236	0x3f008e95	0.5021756
237	0x3eaf801e	0.34277433
238	0x3ec24f55	0.3795115
239	0x3ed0588f	0.40692565
240	0x3ebf4dde	0.37364095
241	0x3f1cc307	0.6123509
242	0x3ebf16bf	0.3732204
243	0x3f47e496	0.7808317
244	0x3eb77ccd	0.35837403
245	0x3eccbd8c	0.39988363
246	0x3eaf97c2	0.3429547
247	0x3e97997c	0.29609287
248	0x3ee4c0ca	0.44678336
249	0x3e98c0cf	0.298346
250	0x3f169511	0.5882121
251	0x3eef323d	0.46718016
252	0x3e84a86f	0.25909755
253	0x3ed4ff11	0.4160085
254	0x3ed4e36d	0.41579762
255	0x3e8a80b2	0.27051312

bn1.bias f4 [256]
0	0xbdea1a1f	-0.114307635
1	0xbd5ff730	-0.054679096
2	0x3d7c4973	0.061593484
3	0x3cbdf488	0.02318789
4	0xbea8d5bf	-0.32975575
5	0x3e97272b	0.2952207
6	0xbe32e795	-0.17471154
7	0xbe4af1be	-0.1981878
8	0x3d504f29	0.050856743
9	0x3e032500	0.12807083
10	0xbe697115	-0.22797044
11	0xbdabba84	-0.083851844
12	0x3e1fa2e7	0.15589486
13	0x3dbd4294	0.092412144
14	0xbd85e54c	-0.065378755
15	0x3e472405	0.19447334
16	0x3df02dfb	0.1172752
17	0xbbb4f695	-0.005522559
18	0xbc9e21d4	-0.01930324
19	0xbd275d60	-0.040860534
20	0xbe43428a	-0.19068351
21	0x3e3abe81	0.18236734
22	0xbdb976d0	-0.09055865
23	0x3dd7c9a0	0.10536504
24	0x3eaf687b	0.342594
25	0x3bd28525	0.0064245635
26	0xbcbb0120	-0.022827685
27	0x3ccdd557	0.025126142
28	0x3ed2ca30	0.41169882
29	0x3d17a19d	0.03701936
30	0x3e97a221	0.29615882
31	0xbdd5eb89	-0.104453154
32	0xbe379775	-0.1792887
33	0xbd4a0460	-0.04932058
34	0x3f023392	0.5085994
35	0x3daf7d83	0.08568861
36	0xbc8ec6b6	-0.017428737
37	0x3db907f6	0.090347216
38	0xbd660fde	-0.056167476
39	0x3e805d4c	0.2507118
40	0xbe77fe98	-0.24218214
41	0x3e038ac5	0.12845905
42	0x3e908f59	0.28234366
43	0xbe0118a2	-0.12607053
44	0x3ed306fd	0.4121627
45	0x3e4a03f8	0.19728076
46	0xbd7e16ca	-0.062033452
47	0xbe507bf6	-0.20359787
48	0x3e852226	0.26002616
49	0xbdd6dd4e	-0.10491429
50	0x3d661da5	0.056180615
51	0x3d9dcaaa	0.07704671
52	0x3cbb53fc	0.022867195
53	0x3d754584	0.05988075
54	0x39bbfe54	0.0003585691
55	0xbd83ac57	-0.064293556
56	0x3c59ef0d	0.013301623
57	0x3de2ed98	0.11080474
58	0x3d810837	0.06300395
59	0x3eb1cbf0	0.34725904
60	0x3da5bf15	0.08093087
61	0x3d92f55f	0.07175707
62	0x3dc4e92d	0.09614787
63	0xbc862f39	-0.01637994
64	0x3d9037b4	0.070418745
65	0xbace46e7	-0.0015737683
66	0x3db0f588	0.08640581
67	0x3eab7ae8	0.33492208
68	0x3c19b945	0.009382551
69	0xbdf0da89	-0.11760432
70	0x3e64fab0	0.22361255
71	0xbdb8ff56	-0.090330765
72	0xbdbd27b6	-0.0923609
73	0xbd2fa419	-0.042881105
74	0x3c95d5e5	0.01829047
75	0xbd0d356d	-0.03447478
76	0x3e13709c	0.14398426
77	0xbe6e4a68	-0.23270571
78	0x3e15bf39	0.14623727
79	0xbd22b1cd	-0.039720345
80	0x3e0d74f7	0.1381415
81	0xbe517dea	-0.20458189
82	0x3c75b039	0.014995628
83	0xbe055ffa	-0.13024893
84	0x3e106f9c	0.14105076
85	0xbe548d92	-0.2075713
86	0xbc79970e	-0.015233768
87	0xbe912fcc	-0.2835678
88	0x3e1f17fc	0.15536493
89	0xbe5086b6	-0.20363888
90	0x3ceb32d4	0.02871076
91	0xbe3a273f	-0.18179034
92	0x3e47b568	0.19502795
93	0xbdbba05f	-0.09161448
94	0xbc79f220	-0.015255481
95	0xbe21a3b1	-0.157851
96	0x3e1864ef	0.14882253
97	0x3de4a858	0.111649215
98	0xbde438ee	-0.11143671
99	0xbdba0fc5	-0.09085039
100	0x3d2cfe83	0.04223491
101	0xbe827a2c	-0.25483835
102	0x3e199edb	0.15002005
103	0xbda0c38e	-0.07849799
104	0xbe86a689	-0.2629893
105	0x3ee337e2	0.44378573
106	0x3dbb7496	0.091530964
107	0x3e4e6507	0.20155726
108	0xbe2af86d	-0.1669633
109	0xbd65af92	-0.05607564
110	0xbc3165c5	-0.010827486
111	0x3c53c5b9	0.012925559
112	0x3ed4fa7d	0.41597357
113	0x3da29fc7	0.07940631
114	0x3ed0ce5e	0.40782446
115	0xbd4a5abc	-0.049402937
116	0x3d7bb91f	0.061455842
117	0xbe6fa783	-0.23403744
118	0x3d2401ca	0.04004077
119	0x3e46dc5b	0.19419996
120	0x3d35580b	0.044273417
121	0x3d80a408	0.062812865
122	0xb9b777be	-0.00034993695
123	0x3dbff301	0.09372521
124	0xbe09aca3	-0.13444762
125	0x3e04e04b	0.12976186
126	0xbec226a3	-0.37920102
127	0xbca61873	-0.02027533
128	0x3e3a4a12	0.18192318
129	0xbe3a1f11	-0.18175913
130	0xbdfca7a4	-0.123366624
131	0xbe132c75	-0.14372428
132	0xbeb9a003	-0.36254892
133	0x3cd2e420	0.025743544
134	0x3d93f7c8	0.07224995
135	0xbd257205	-0.04039194
136	0xbdf8e986	-0.12153916
137	0xbe485884	-0.19565016
138	0x3e918eed	0.28429356
139	0xbe9f5675	-0.3112065
140	0x3e1fd6a8	0.15609229
141	0xbdf1d23a	-0.11807676
142	0xbe379f97	-0.17931972
143	0x3b18cb6d	0.002331461
144	0x3d8b8c80	0.068139076
145	0xbea6b434	-0.3255936
146	0x3e89469b	0.2681168
147	0xbe557f75	-0.20849402
148	0xbc1f9fc7	-0.009742684
149	0xbd940800	-0.072280884
150	0x3e2fc6b8	0.17165649
151	0xbe0075d2	-0.12544945
152	0x3eb0556b	0.3444017
153	0x3e003563	0.12520365
154	0x3d9d8623	0.076916
155	0xbcdcf84d	-0.026973868
156	0xbe85416c	-0.26026475
157	0xbe2f5901	-0.17123796
158	0xbdb75dff	-0.08953475
159	0xbd6046b6	-0.054754935
160	0xbdc0f20a	-0.09421165
161	0x3f1a9739	0.60387
162	0xbd81ad44	-0.06331876
163	0x3d07755d	0.03307091
164	0x3d324f7e	0.04353284
165	0x3e9847bd	0.29742232
166	0x3dbd82ce	0.09253465
167	0xbd956ed2	-0.07296528
168	0x3daa1c94	0.08306232
169	0x3d0abbe2	0.033870585
170	0x3e441ff7	0.19152819
171	0xbd6f0bff	-0.05836105
172	0xbdc6715f	-0.096895926
173	0xbd1eb51a	-0.03874693
174	0x3e2c502f	0.16827463
175	0x3da424c8	0.08014828
176	0xbe0f32c3	-0.13984208
177	0x3e89a4d1	0.26883557
178	0x3e041cf2	0.12901667
179	0x3d927eb5	0.07153074
180	0x3dbfe39b	0.09369584
181	0x3e523ef2	0.20531824
182	0xbd88ffa7	-0.06689387
183	0x3e2ebdfa	0.17064658
184	0x3e671adb	0.22568838
185	0x3cc21151	0.023689898
186	0xbe98c04c	-0.2983421
187	0x3e899746	0.26873225
188	0x3df4ad05	0.11947063
189	0xbe115e82	-0.14196208
190	0x3e1fe6e7	0.15615426
191	0x3d50a030	0.050934017
192	0x3e80aef2	0.25133473
193	0xbddb95d8	-0.1072194
194	0x3e9fe1cc	0.31226957
195	0x3dcb2900	0.099199295
196	0xbbd71f98	-0.0065650456
197	0xbd818054	-0.06323305
198	0x3e1c0452	0.15236023
199	0x3e3f8a06	0.18704996
200	0x3e3e74ad	0.18599196
201	0x3e20fef9	0.15722264
202	0xbc86e0a4	-0.016464539
203	0x3e10ed70	0.14153075
204	0x3e0e2597	0.13881527
205	0x3e82ed5f	0.25571725
206	0xbe021f36	-0.12707219
207	0xbd7dcb5d	-0.06196152
208	0x3e589b25	0.21152933
209	0x3e001b25	0.12510355
210	0x3e3aba9c	0.18235248
211	0x3e06a0ad	0.1314723
212	0xbda16757	-0.07881039
213	0xbe113e6f	-0.14183973
214	0xbe9d0588	-0.30668283
215	0xbe09ead3	-0.13468485
216	0x3e25683f	0.16153048
217	0xbbb9cb5b	-0.005669994
218	0xbe6594f0	-0.22420096
219	0x3e5b2755	0.21401723
220	0xbd4e9e57	-0.050443973
221	0xbd9c4f65	-0.07632331
222	0x3daf5f04	0.08563045
223	0x3e6cfd25	0.23143442
224	0x3b8ada69	0.0042374623
225	0xbdca9782	-0.09892179
226	0x3e638d4e	0.22221872
227	0xbc18a530	-0.0093167275
228	0x3dd2c400	0.1029129
229	0x3dc1a3c4	0.09455064
230	0xbcad4e5a	-0.021155525
231	0x3e0b7447	0.13618575
232	0x3d91fa44	0.071278125
233	0x3e09fe35	0.13475879
234	0xbd2ac9ab	-0.04169623
235	0xbcac39fb	-0.021023741
236	0x3c923e7d	0.017852062
237	0xbbf061fd	-0.0073359
238	0xbddf8ca9	-0.10915501
239	0x3dd17465	0.102272786
240	0x3d3bb221	0.045824174
241	0x3ce87177	0.028374417
242	0x3e849e2d	0.2590193
243	0x3db5d2ba	0.088780835
244	0xbe6e0e73	-0.232477
245	0x3e27c246	0.16382703
246	0x3e9c3a39	0.3051317
247	0x3cd15022	0.025550906
248	0x3e9cbbaa	0.30611926
249	0x3ce875da	0.028376509
250	0x3e719544	0.23592097
251	0x3e33d9e5	0.17563589
252	0x3d9a75a9	0.07541973
253	0x3e9548a8	0.29156995
254	0x3cc997e0	0.024608552
255	0xbcd1b938	-0.025601014

bn1.running_mean f4 [256]
0	0x3e74816f	0.238775
1	0x3dd30849	0.10304315
2	0x3d05c3fe	0.032657616
3	0x3dfbc93e	0.12294243
4	0x3efe5460	0.49673748
5	0x3f6f4403	0.9346315
6	0x3c53fb84	0.012938384
7	0x3e3897d2	0.18026665
8	0x3e411875	0.18856986
9	0x3d2b004f	0.04174834
10	0x3ddf22c4	0.10895303
11	0x3e30f607	0.17281352
12	0x3eaeae9d	0.34117594
13	0x3e44014a	0.19141117
14	0x3ebe726b	0.3719667
15	0x3e1c8e8c	0.15288752
16	0x3ec8c7a8	0.39214826
17	0x3e59ada0	0.21257639
18	0x3d957627	0.072979264
19	0x3d1fe33e	0.039035074
20	0x3dd7de87	0.105404906
21	0x3dab76f6	0.083722994
22	0x3dc177f8	0.0944671
23	0x3ea22430	0.31668234
24	0x3f6d3763	0.9266264
25	0x3d8989f5	0.06715766
26	0x3e897bda	0.26852304
27	0x3e3b4750	0.18288922
28	0x3e90295d	0.28156558
29	0x3dcb2aa0	0.099202394
30	0x3c76646d	0.015038592
31	0x3ed16441	0.408968
32	0x3e98df6d	0.2985796
33	0x3e131b98	0.14365995
34	0x3c8f8975	0.0175216
35	0x3e44dbc8	0.19224465
36	0x3d7cc67e	0.061712734
37	0x3e3587f6	0.17727646
38	0x3e424412	0.1897128
39	0x3eaf9c7e	0.34299082
40	0x3df377fb	0.11888119
41	0x3d58f4de	0.0529679
42	0x3e432ade	0.19059321
43	0x3e4e88be	0.2016935
44	0x3f420773	0.75792617
45	0x3e569bc8	0.20957863
46	0x3e9bbba0	0.30416584
47	0x3eaed21c	0.34144676
48	0x3e108bc3	0.14115815
49	0x3ee60a7f	0.44929883
50	0x3ebd5436	0.3697831
51	0x3d9c814f	0.07641851
52	0x3e24844d	0.16066094
53	0x3e2b2e09	0.1671678
54	0x3d9ad302	0.07559778
55	0x3da8a50a	0.08234604
56	0x3eccd73d	0.40007964
57	0x3e3a2066	0.18176422
58	0x3df7dea6	0.12103014
59	0x3e6aeedd	0.22942682
60	0x3ebaa729	0.36455658
61	0x3e3f65a1	0.18691112
62	0x3e192ea2	0.14959195
63	0x3da3bb32	0.07994689
64	0x3e15c89c	0.14627308
65	0x3d1243c8	0.035709172
66	0x3d0e3456	0.03471788
67	0x3f095c20	0.53656197
68	0x3dfb8074	0.1228036
69	0x3e23135f	0.15925358
70	0x3e84cc8a	0.259373
71	0x3cf35775	0.029704789
72	0x3ce68813	0.028141057
73	0x3e82f398	0.25576472
74	0x3ea047e8	0.3130486
75	0x3dcdeedf	0.10055327
76	0x3e160f0b	0.14654176
77	0x3dd8ee37	0.10592311
78	0x3e4bd44c	0.19905204
79	0x3dfebc22	0.12438227
80	0x3e8ead6a	0.2786668
81	0x3f0e4b39	0.5558353
82	0x3ecc32d5	0.39882532
83	0x3d34017e	0.043946736
84	0x3e6c1f6f	0.23058866
85	0x3e1bca32	0.1521385
86	0x3deddd56	0.11614482
87	0x3d8a55d6	0.06754653
88	0x3e0ae256	0.13562903
89	0x3e3177eb	0.17330901
90	0x3e6d3762	0.23165658
91	0x3e1e4420	0.15455675
92	0x3e4532b6	0.19257626
93	0x3e3ca1f9	0.18421163
94	0x3e4cbd9d	0.19994207
95	0x3c775cf4	0.015097845
96	0x3db5dd69	0.08880121
97	0x3dda3ac0	0.10655737
98	0x3db11bac	0.08647856
99	0x3ccd0a97	0.025029464
100	0x3f0c7a92	0.5487453
101	0x3f240cd4	0.64082074
102	0x3e45dc65	0.19322355
103	0x3d7ff80c	0.062492415
104	0x3d3a756a	0.04552213
105	0x3f002f67	0.5007233
106	0x3d16348e	0.036671214
107	0x3e102e6c	0.14080209
108	0x3bed2f24	0.0072382856
109	0x3e1af2a1	0.15131618
110	0x3caf5388	0.021402135
111	0x3ee691cf	0.45033118
112	0x3cef43db	0.02920716
113	0x3e34557a	0.17610732
114	0x3e82e887	0.2556803
115	0x3d0b5e36	0.034025393
116	0x3e33120c	0.17487353
117	0x3d22b697	0.039724912
118	0x3d54f33e	0.051989786
119	0x3f17b66c	0.5926273
120	0x3da265aa	0.07929547
121	0x3ded387b	0.115830384
122	0x3d2a46d7	0.041571464
123	0x3db83682	0.089947715
124	0x3e72219a	0.2364563
125	0x3de81e19	0.11333866
126	0x3d82538d	0.06363592
127	0x3e848115	0.25879732
128	0x3d78a266	0.06070175
129	0x3dd15550	0.1022135
130	0x3d724b5f	0.05915391
131	0x3eeae181	0.4587517
132	0x3e2974bf	0.16548441
133	0x3d817b1c	0.063223094
134	0x3e6428b5	0.22281154
135	0x3e990205	0.29884353
136	0x3e60a49d	0.21937795
137	0x3db20001	0.08691407
138	0x3d06d76a	0.03292028
139	0x3c889cca	0.016676325
140	0x3e2f2cca	0.1710693
141	0x3cc11419	0.023569154
142	0x3e360a22	0.17777303
143	0x3d73d468	0.05952874
144	0x3e0798e0	0.13241911
145	0x3e1a6bd4	0.15080196
146	0x3e523bbe	0.20530602
147	0x3d9d7fa7	0.076903634
148	0x3dd3d97c	0.10344216
149	0x3ca0b25a	0.019616295
150	0x3e523b41	0.20530416
151	0x3ecd2b66	0.40072173
152	0x3d88ce01	0.06679917
153	0x3f266abf	0.6500663
154	0x3e273403	0.16328435
155	0x3dc80375	0.097662844
156	0x3ede5f23	0.4343196
157	0x3d454c57	0.048168506
158	0x3d909407	0.07059484
159	0x3ed33a3b	0.41255364
160	0x3eb284d7	0.34866974
161	0x3f952126	1.1650741
162	0x3c83b9ba	0.016079772
163	0x3d733190	0.05937344
164	0x3e253f80	0.16137505
165	0x3e9b2fd8	0.3030994
166	0x3d37a5ef	0.04483598
167	0x3e3800c8	0.17969048
168	0x3d8a5692	0.06754793
169	0x3df16bcb	0.11788138
170	0x3d7cd22c	0.061723873
171	0x3cf14452	0.029451523
172	0x3ea99ffe	0.33129877
173	0x3e09b5ba	0.1344823
174	0x3e896a47	0.26838896
175	0x3dd9b622	0.10630442
176	0x3c8d721c	0.017266326
177	0x3f7ae36d	0.98003274
178	0x3f31e5f8	0.6949153
179	0x3d7f2e47	0.062299993
180	0x3cbabc81	0.022794964
181	0x3e358ac2	0.17728713
182	0x3ec356f1	0.3815227
183	0x3f3a37d1	0.7274142
184	0x3d494a65	0.049143214
185	0x3d796b3a	0.060893275
186	0x3e1353f5	0.14387496
187	0x3e0217f7	0.12704454
188	0x3d5a8b4b	0.053355496
189	0x3dc6221a	0.09674473
190	0x3ce2113e	0.027596112
191	0x3e65a770	0.22427154
192	0x3e610be6	0.21977195
193	0x3efdee4c	0.4959587
194	0x3e0a2ea1	0.1349435
195	0x3e24608d	0.16052456
196	0x3e2da3a6	0.16956958
197	0x3e5a9ba1	0.2134843
198	0x3ec4c6a7	0.3843281
199	0x3e4028c7	0.18765555
200	0x3ea7ce71	0.3277469
201	0x3c7737af	0.01508896
202	0x3e4276fd	0.18990703
203	0x3d8c8e62	0.06863095
204	0x3e3ef98d	0.18649884
205	0x3e45cfed	0.19317599
206	0x3e6d5560	0.23177099
207	0x3e6d0e6d	0.23150034
208	0x3e889655	0.26677194
209	0x3c90f8c8	0.017696753
210	0x3cae9360	0.021310508
211	0x3e96eaa7	0.294759
212	0x3e4e9785	0.20174988
213	0x3e62853f	0.22121142
214	0x3e73a937	0.23795019
215	0x3e6fa022	0.2340093
216	0x3e943237	0.2894456
217	0x3e62304b	0.22088735
218	0x3dd4ddff	0.10393905
219	0x3d3a1bb1	0.045436565
220	0x3dafb2ce	0.08579026
221	0x3da6a26f	0.081364505
222	0x3e321cbf	0.17393778
223	0x3f2d0846	0.6759075
224	0x3e658d92	0.22417286
225	0x3dcd127a	0.1001329
226	0x3f4a5bb7	0.79046196
227	0x3ebe8288	0.37208962
228	0x3d35f2b6	0.04442092
229	0x3e3c7c0e	0.18406698
230	0x3e1e6cd1	0.15471198
231	0x3eccb06e	0.39978355
232	0x3cdd3953	0.027004873
233	0x3e1b720e	0.15180227
234	0x3e9acecf	0.30235907
235	0x3e845598	0.25846553
236	0x3dc16098	0.09442252
237	0x3e81e50d	0.25370064
238	0x3ddd63f8	0.10810083
239	0x3e966c7a	0.29379636
240	0x3e04d3d3	0.1297143
241	0x3ef2ee4a	0.47447425
242	0x3e59ff6e	0.21288845
243	0x3e8f53de	0.27993673
244	0x3e1e122e	0.15436623
245	0x3e85f300	0.26161957
246	0x3e7fb077	0.2496966
247	0x3ebe5c3e	0.3717975
248	0x3f4a32bb	0.7898366
249	0x3e861fc0	0.26196098
250	0x3eb5c134	0.35498965
251	0x3de194a7	0.11014681
252	0x3c4e07a5	0.012575065
253	0x3f2a5a55	0.66544086
254	0x3dea6a32	0.114460364
255	0x3d06b2c9	0.032885347
